D.pth (torch, 47223 bytes, 15 tensors)

model.0.weight f4 [8, 1, 4, 4]
00000000: 3814 a4be ef16 2fbe 144c 8abd f415 fcbd
00000010: ff60 48bf 50ea 31bf bdb3 1ebf 4cf1 04be
00000020: ec1d 54be d250 fdbe c6b5 19bd b41d 9fbd
00000030: 0257 d6be 7178 76be c198 17be ff2e f73a
00000040: 521c e7bd a19a 2fbd 373c 8e3d 85a1 5dbd
00000050: 8953 8cbd cdd4 cdbc 29d3 5c3c 7119 8fbb
00000060: 62c1 933d f8ec 2cba 357f 743d 687d afbb
00000070: 6f30 233d fa5d d0bb e62a fd3c 7df6 673d
00000080: 7ed5 dabd b7f4 bb3c c1c7 b43d 027f a639
00000090: 9e99 bebd 81d9 a4bc f22f ab3d 26aa 38bd
000000a0: 79b0 54bb ef28 423d de48 743d c93f 1e3d
000000b0: ad0a 6cbd a5aa 40bd ee8a 8c3b 7368 5b3d
000000c0: 468f f9bc 0062 a93d 00f0 4a3e 54e1 983e
000000d0: a0b4 28be ed86 0d3e 19ac ee3d c19c 883d
000000e0: 5802 95be acde 303d aa2a 2ebc 06d5 86be
000000f0: ab23 2dbf a87b f3be d803 cbbe eabd babe
00000100: 0bcb c83a 784e bbbd 71bb 963b e1d2 69bd
00000110: d414 2cbe 7d65 4cbe 35a8 013d 0611 8d3d
00000120: c3a7 6f3d a47f 09be a839 05be e6e3 e33c
00000130: 8314 a93e 3b79 ab3d c7f5 013e fa9e 4d3e
00000140: 5c08 00be baed 673a fd07 e83d 1957 623c
00000150: 76f6 83be c71c 48bd f1da d93e 6c7e 613e
00000160: b9e9 07be 5993 a4be 221b 15be 1f74 2c3d
00000170: 0dc2 323d 389b fbbb 2016 c0bd d10b 1dbe
00000180: 3a6e 623e 4317 053e a277 0d3d fd51 ed3c
00000190: 2cd8 a13d 7f0c b5bc 9874 43bd ccfc 6abb
000001a0: e630 1c3d 62ac 99bd f190 5fbd aeb6 32bc
000001b0: be7c 16bd 32c5 d0bd e276 edbd 08e6 1bbe
000001c0: f481 abbd d2cb 4abc 236c 813d cfc4 883d
000001d0: 4dcd 103d d6d7 373e 7f6e 9e3e 4688 133d
000001e0: 10cc 23be e81b 11be 93fc 3ebd b9c2 28bd
000001f0: c384 36bc 9fde f23c 1e0d d2bc daae 943c
-0.32046676 -0.17098592 -0.06752792 -0.12308875 -0.78273004 -0.6949816 -0.6199301 -0.12982672
-0.2071454 -0.49475724 -0.03752687 -0.07769337 -0.41863257 -0.24069382 -0.14804365 0.001885861
-0.112846985 -0.042872075 0.06945079 -0.054109115 -0.068518706 -0.025125885 0.013478079 -0.0043670465
0.07214619 -0.00065965904 0.059691627 -0.0053555258 0.03984111 -0.006358859 0.030904245 0.056631554
-0.10685252 0.022943838 0.088271625 0.00031756615 -0.09306644 -0.020123245 0.08358754 -0.04508414
-0.0032453819 0.04740232 0.059639804 0.03863505 -0.05762737 -0.04703774 0.0042890226 0.053566407
-0.030463826 0.08270645 0.19818115 0.29859412 -0.16475153 0.13821001 0.11653919 0.066705234
-0.2910335 0.043181106 -0.010630289 -0.263344 -0.6763255 -0.4755528 -0.3965137 -0.36473018
0.0015319301 -0.09145826 0.0045999815 -0.057085875 -0.1680482 -0.1996059 0.031654555 0.068880126
0.0585096 -0.13427597 -0.13010275 0.027818631 0.33023462 0.08372732 0.12691413 0.20080176
-0.12503189 0.00088473747 0.11329649 0.013814711 -0.25773972 -0.04885557 0.42549852 0.22020882
-0.13272752 -0.32143667 -0.14561132 0.04210293 0.043642092 -0.0076784156 -0.0937922 -0.15336539
0.2211236 0.12997155 0.03453792 0.02896976 0.0790256 -0.022100685 -0.047718614 -0.0035856245
0.03813257 -0.075035825 -0.054581586 -0.010907812 -0.036740057 -0.10193862 -0.11594941 -0.15224469
-0.08374396 -0.012377696 0.063194536 0.06678163 0.03535204 0.17953429 0.30943677 0.036018632
-0.15995812 -0.14170802 -0.046627592 -0.041201327 -0.011140051 0.02964717 -0.02564102 0.018149782

model.0.bias f4 [8]
00000000: cbc4 e33e f701 5b3e e0e5 463e 5aa7 353b
00000010: a474 fabe e0a8 81bc 85a0 10be 1583 efbd
0.4448608 0.21387468 0.19423628 0.0027718158 -0.48917115 -0.015827596 -0.14123733 -0.11694924

model.2.weight f4 [16, 8, 4, 4]
00000000: 4809 87be 7690 2cbd 7ba0 4e3e c434 ae3e
00000010: d554 97be b586 7ebe 6c9f d9bd 1675 d7bc
00000020: fe39 fdbd f0b2 37be f2db a1bd ab70 2ebe
00000030: d2a6 483e 7eb6 f83d 6f19 fe3d 282b e1bb
00000040: f52a e7bd 3278 4bbd 4c12 25be 73df 3e3e
00000050: 95ea b63d b563 efbb 0f3c 08bd 8dc7 3e3d
00000060: 4fc7 f4bc d6fb bf3c 5625 07bb 24bb 78bd
00000070: 0562 9dbb 85b4 ba3d 180a 31bc c7e9 96bd
00000080: 7733 b0bd 105a ca3d 5404 29bd 8e5b 913c
00000090: b71a 1a3d da55 8e3d 655a 8f3c 1c49 673e
000000a0: ddf6 01bd d255 0c3d 4f32 8b3c 24c7 52bd
000000b0: c03a d9bc 1c4f 71bd 8929 093d 7681 cabd
000000c0: 18b1 1c3d b3dd 1d3d 8775 643d 6ff9 93bd
000000d0: 3c78 23be a175 c8bd e005 a7bb 4500 1bbe
000000e0: b86f c9ba b738 b93d f6f8 523e 3ee4 b63e
000000f0: 075a 7abd 8943 993e b5e5 e73e ca8c eb3e
00000100: d21d 09be 0cfb 3fbd fd70 babd 21cb 33be
00000110: 9590 bdbe 7ab0 12be b509 f9bd ebdb 5b3d
00000120: 516b 98bd 3523 093d ccd4 c83d 4bb4 153e
00000130: 655c 063e f5b4 043e d75c d03d 500d d03c
00000140: 434f c7be b6b6 06bd 0657 5abd 6ebb 34be
00000150: 7352 a4be 0dc0 34bd 2db0 adbc c595 c6bc
00000160: 3a50 593d 569a 873e f541 683e dc49 543e
00000170: 12e1 6f3e 553f de3b 46f4 ca3d e156 f93a
00000180: 604c d03d e4c0 51be 8948 66bd 9d7d 033d
00000190: 8003 02be 2320 46be 7fe3 ac3c 3d6c f9bb
000001a0: 2d79 50be f04b 85be d902 01be f422 823d
000001b0: b2a9 12be b313 32bd ad59 efbc 5dc3 99bc
000001c0: 8699 90be 6b82 e2bd 5975 203d 745e 6cbd
000001d0: 88bb 6dbe abb6 69bd 3037 66bd 3547 1ebe
000001e0: 3500 66be 1654 573d 9da4 173d 8d0f 70bd
000001f0: abf2 393e 7abc cd3d 0b26 c43d 1246 153e
00000200: a208 e3bd e9cb c8be ff5c 25be b814 68be
00000210: ec55 763e 4faa 033e 4ba7 363d 54e8 8fbb
00000220: a554 423e 48d9 cc3c c9a7 da3b 026f c93d
00000230: 228f a53e ef2a 233d a763 193d 339f 96bd
00000240: 2495 453e b993 16be 19a9 673e a3e8 c53d
00000250: 8359 053e 7d61 053d 0eeb 193e f51d 073d
00000260: 5f40 f03d e3d7 7938 e42d 803c 1a28 dfbd
00000270: b14c 37be d30f b4bd f2dd f13c 28f0 a13d
00000280: 1b4d d03e 7326 bd3d 84c7 f83d 3158 42bc
00000290: 9b99 a53d 9383 033c 14d7 373d 500f 11bd
000002a0: e032 923d 5fac 28be f879 b83d ad87 92bc
000002b0: 1023 c13d edf7 94bd 4791 1f3d e9c9 85bd
000002c0: ee7e 883d 340c 333e 29e2 ec3e f91d c63e
000002d0: 2f43 893e 9858 013f c820 073f d013 1a3f
000002e0: 528b cd3d d66d 093c a5cb 55bd ece6 8d3c
000002f0: c645 6d3d 9322 f9bc 8ad7 d2bd 5ccf 00bd
00000300: c7a7 8e3d 9b50 56bd d9f0 d3bd bffa 143e
00000310: 9928 713e 6618 793e 0cc4 823e 4949 843e
00000320: d5f3 503e 6fbd 1a3e 50b3 0c3c bd8e 2ebe
00000330: 8b77 7cbe 5e6c 76be f595 acbc 6c21 4c3d
00000340: 8b6d c23e 0eed 9d3d fe68 733a f8b4 d23d
00000350: 4ea2 383e c428 1ebd b0ed 73bd 9c56 37be
00000360: 28f3 f03c ecc6 1cbe 870c 1ebc 946c efbd
00000370: f74d 33be 5969 afbd 08a8 313d 9bce acbb
00000380: 74ca bdbe b84c 24be 59d3 8fbd 0d30 6fbd
00000390: 5ca0 6ebe c3d4 f9bd ba30 c9bd 44bd 09bd
000003a0: 3f45 67bd 0b77 5d3e e32c 783d 8aa4 0e3d
000003b0: e7ef 683e 4034 633e a3d3 8d3d 980e 0c3d
000003c0: 08b5 58be 96a9 4fbe c13d 91be b64c 85be
000003d0: 99ff 50bd 72dc 453c 3cb8 3abd 829c de3d
000003e0: 114d cd3d ec6f 5dbc 8e79 133e a0fb 843d
000003f0: 6a6d 103d b8f1 133e f272 bd3a 8bfa 873b
-0.2637427 -0.042129956 0.20178406 0.34024632 -0.2955691 -0.24856074 -0.106261104 -0.026300948
-0.12364577 -0.17939353 -0.07903279 -0.17035167 0.19594887 0.121441826 0.12407195 -0.0068715997
-0.1128749 -0.049675174 -0.16120261 0.18639927 0.08931462 -0.007305587 -0.0332604 0.046577025
-0.029880194 0.023435514 -0.002062162 -0.060725346 -0.0048029446 0.091164626 -0.010805629 -0.07368808
-0.08603566 0.09880459 -0.041263893 0.017743852 0.037623134 0.06949969 0.017499158 0.22586483
-0.031729568 0.034261532 0.016991762 -0.051459447 -0.026517272 -0.058913335 0.033486877 -0.09887974
0.038254827 0.038541507 0.055776145 -0.0722531 -0.15963835 -0.09788061 -0.005097136 -0.15136822
-0.0015368378 0.090440206 0.20602784 0.3572101 -0.061121013 0.29934338 0.4529244 0.4600585
-0.13390282 -0.046870276 -0.09103582 -0.17557956 -0.3702437 -0.14325133 -0.121600546 0.053676527
-0.07442344 0.03348084 0.09806213 0.14619558 0.13121183 0.12959655 0.10173958 0.025396973
-0.3892766 -0.03288909 -0.05330565 -0.17649624 -0.32094154 -0.044128466 -0.021202171 -0.024241338
0.053055026 0.26484936 0.2268141 0.207313 0.23425701 0.006782452 0.09909873 0.0019023084
0.101708174 -0.20483738 -0.05622152 0.032102216 -0.12696648 -0.19348197 0.021104572 -0.00761178
-0.20358725 -0.26034498 -0.12598743 0.06354323 -0.14322546 -0.043475818 -0.029217565 -0.018769914
-0.2824213 -0.110600315 0.03917441 -0.057707265 -0.23216069 -0.05705897 -0.056204975 -0.15456851
-0.22461016 0.052570425 0.03702222 -0.05860858 0.18158977 0.10045715 0.095775686 0.14577511
-0.11085631 -0.3921807 -0.16148756 -0.22664154 0.24056214 0.12857936 0.044593137 -0.0043917093
0.18977602 0.025005952 0.0066728336 0.09835626 0.32335764 0.039835867 0.03744855 -0.073545836
0.19295174 -0.14704789 0.226231 0.096635126 0.13022427 0.032563675 0.15031072 0.032987554
0.11731028 5.9567286e-05 0.015646882 -0.10896321 -0.17900349 -0.08792081 0.029524777 0.07907134
0.40683827 0.09235849 0.121474296 -0.011861847 0.080859385 0.008026975 0.04488285 -0.035414994
0.0713861 -0.16472004 0.09007639 -0.01788696 0.09430516 -0.072738506 0.038956907 -0.06532652
0.06664835 0.17485124 0.46266297 0.38694742 0.2680907 0.5052581 0.52784395 0.6018648
0.10036339 0.008388003 -0.052196164 0.017322026 0.05792787 -0.030411994 -0.10295017 -0.031447753
0.06965595 -0.052322965 -0.103486724 0.14548777 0.23550643 0.24325714 0.25540197 0.25837162
0.20405515 0.15111326 0.008587673 -0.17046638 -0.24654977 -0.24064776 -0.021067599 0.04983656
0.379742 0.0771123 0.00092853594 0.10288423 0.18030664 -0.038613096 -0.05955285 -0.17904133
0.029412821 -0.15310258 -0.009646541 -0.116906315 -0.1751021 -0.08565015 0.043373138 -0.0052736527
-0.37068522 -0.16044891 -0.07022733 -0.058395434 -0.2330336 -0.12198784 -0.09823747 -0.033627763
-0.056462523 0.21627443 0.060589682 0.034824885 0.22747765 0.221879 0.06925132 0.034193605
-0.21162808 -0.20279536 -0.28367427 -0.26035088 -0.051025007 0.012076484 -0.045585856 0.10869695
0.10024465 -0.013515454 0.14401838 0.06493306 0.035260595 0.14447677 0.0014453812 0.00414974

model.2.bias f4 [16]
00000000: aa06 8bbd 5a54 81be 26a2 f93d 4f24 cbbd
00000010: 7eb2 883d 72b6 2e3e 6062 833e c6f0 5d3e
00000020: d71b b0bd c123 593d 3e4a 2a3e bb51 f93d
00000030: 323f f7bd 9534 36be 792d 0f3e 5d8d 153e
-0.067883804 -0.25259668 0.121891305 -0.09919035 0.0667467 0.17061785 0.25660992 0.21673879
-0.0859906 0.053012613 0.16629884 0.12173792 -0.120726004 -0.17793496 0.1398219 0.14604707

model.3.weight f4 [16]
00000000: c352 223f c1e1 663f 8d00 4b3f 441d 183f
00000010: 2da4 403f 6c1b f83e 9ff0 7a3f 8ada 493f
00000020: 0260 813f 7ed9 343f 7559 063f 73b0 a03f
00000030: da25 aa3f f5fb 393f 8133 323f 0a64 a13e
0.63407534 0.90188223 0.79297715 0.59419656 0.7525051 0.4845842 0.9802341 0.7884909
1.0107424 0.70644367 0.5248025 1.2553848 1.3292801 0.7265008 0.6960984 0.31521636

model.3.bias f4 [16]
00000000: 6879 45be 4781 28bf 534a 49bf 3bdc b3be
00000010: 01b0 d9be cbb2 a8be 23eb 9fbf ab23 65bf
00000020: 373e 5fbf 6887 1dbf c0cb 8abe 2f50 fabe
00000030: 2403 8abf 13a8 48bf 7e76 f2be e2e6 46be
-0.19284594 -0.6582226 -0.78629035 -0.3512896 -0.42517093 -0.32948908 -1.2493633 -0.8950755
-0.8720431 -0.6153474 -0.27108574 -0.488893 -1.0782208 -0.7838146 -0.47356027 -0.19424012

model.3.running_mean f4 [16]
00000000: af0a f2bd 118d b9be d1f5 9f3b 00f7 dabe
00000010: 70a0 a53d 2e58 303f d78a 92be b282 96bd
00000020: c81d b2be e7e5 103e 01c2 ff3e 3631 71bd
00000030: cf70 b33e 5ca0 dbbe 1884 3e3e e959 b03f
-0.11818444 -0.36240438 0.0048815985 -0.4276657 0.08087242 0.6888455 -0.2862155 -0.07349147
-0.34788346 0.14150201 0.499527 -0.05888482 0.35047004 -0.42895782 0.18605077 1.3777438

model.3.running_var f4 [16]
00000000: 839a 063e 1d6f f93d 5485 b53d ee6b e23d
00000010: 86c4 823d 1a4e d23d 0a2e 5d3d a7b7 743d
00000020: 48ea cc3e 5d86 aa3d 04aa 7b3e c26c 9e3e
00000030: 73d8 bf3d 71cc 083e 620c f73d a06d 123e
0.13144879 0.12179396 0.08863321 0.11055742 0.0638514 0.10268803 0.053998984 0.059745457
0.40022492 0.08326409 0.24576575 0.3094235 0.09367456 0.13359238 0.12062909 0.14299631

model.5.weight f4 [32, 16, 4, 4]
00000000: 8b06 04bf bf86 9ebf a47d dabe aed3 3dbd
00000010: 6745 b7bc d9b0 83bd b4fe abbd f4fc 34bd
00000020: dd07 103d b068 02bd 2b75 88bd c1c2 e53b
00000030: cd0b 21be c981 013d d028 00bd 30e1 b4ba
00000040: fafc 993f df4a 3c3f d076 a63d 9225 c23d
00000050: c170 a4be c8b8 b0bf b59b 46be 5008 c8bc
00000060: 46e9 8bbd c1c1 693d 869d 2a3d fafe 1e3d
00000070: 09f5 b6bd d6a3 13bc cf2c a6bc ba33 f33b
00000080: 97d4 63be 03c0 6d3f 398d bd3d 693d e33c
00000090: b8b2 e5bd 192d 50bf ed9d cebe cb61 b53d
000000a0: edfe 98bd 614e e73d 1ad4 16bd 9d86 6abc
000000b0: d153 efbb 140a c83b 178f 813b b255 d23c
000000c0: 36e7 603e 11d0 d2bd 8b3e 203c 5546 6ebd
000000d0: 03b4 62bd 3615 d73c 9e81 973d 3021 173e
000000e0: 8768 593d d360 823d 61ab 3cbc 908c 3fbc
000000f0: 868f e23d ddca 663d 0619 a93d 6fbd 883c
00000100: 8479 29be 900c 683f cfb4 243f cb72 063e
00000110: 2ac3 1cbf 179a b3bf ebcf 103d 118b d8bc
00000120: 6e98 09be 2185 2abd 1199 8fbd 4f6b 6fb8
00000130: f728 89bb 9d84 ea3b a1a9 52bc 96e5 8b3d
00000140: d45a 54bf df70 9ebf 9cf6 303d 9245 763d
00000150: ed6d 31be 5a05 d0bd 93e1 453d 5463 b93d
00000160: 3701 d73c 148b 163d b03f fc3b 358f 053d
00000170: 94a1 fabc 2f62 9bbd 4c81 503d fdd6 673a
00000180: cdd9 a7be c0af 15bf af9d d3be 8f67 8f3b
00000190: 39fe 5fbd 8d60 b6bd bce2 51bc 6154 433d
000001a0: ae67 ccbc 3d64 70bd fae3 a6bd 92cc bfbc
000001b0: 860f 8a3d b755 903c 0efb 723d 7417 873b
000001c0: f7d7 503e b185 b2bc c72d 103e e8dd 33bc
000001d0: 5001 f23d 5847 bdbb 595a 263d c3c9 6d3d
000001e0: e19e 6a3d 5a28 203d fccd 1bbd 8c92 f83c
000001f0: 7b48 c43c 7b92 153c 323e 0ebb 1780 bb3d
00000200: f7e2 95bf b80d 6ebe 7ae2 103e 0502 f5bd
00000210: 5fad eb3d 108a 6fbe 08e4 803d 7dba b43d
00000220: 1ded 573d ad92 123c 3d61 2dbd 68b2 dfba
00000230: 8990 ce3d 7243 ad3d a284 2dbc c482 a13c
00000240: b4d7 103f e68f fb3e 5f87 ae3d 817b 123e
00000250: 7d8e a2be 07f0 29bf 3877 fcbe dcab c23d
00000260: ca1a 19bd f73b c83c bace 4bbd bdcc adbc
00000270: fc5c eabb 4917 13bb 369a a4b9 0008 34bd
00000280: af31 b93e 5585 b13e 900a c13d 6630 553c
00000290: 8cc7 3c3e 21aa 7b3d 7c69 913d 5602 3e3e
000002a0: 67e2 1b3d e296 91bc 1d69 883d c819 983d
000002b0: 1f35 b63d c619 1b3d a4ac 5bbc 36d5 85bd
000002c0: eded f33d 110e adbe 012c 9abe 02e7 82bd
000002d0: c614 fd3d da7c 2f3e ec7a e03d bcc0 50bd
000002e0: f339 b53d 117c fb3c 5ec0 df3d bc1c 1d3e
000002f0: e321 0c3e c519 a33d ae60 3a3d e116 f93d
00000300: 3e04 8bbe 47af 483d 72ad 2fb9 28df 89bd
00000310: c99a ca3d c64e f5bd af73 773c 29b9 6f3d
00000320: c031 93bc f448 ccbb 4be0 1a3c c7e3 ae3c
00000330: 4569 613d 620c 0d3d 212e 983d 1765 0e3d
00000340: 715a e13e 5496 073f e679 03be e4ce cd3d
00000350: b04f 40bd 5200 a3be 5a49 3cbf 9cbe 85bc
00000360: b1eb 2bbe 949e 333d 8a43 ecbc cd9b 83bd
00000370: f0b3 61bc 51ca babc d78c 8dbc dbc3 59bd
00000380: 4fd7 803f 3f7a 713f 31ec d23e fd20 533d
00000390: 8127 01bf ca8a 52bf 9df8 b3bd afcb 4d3d
000003a0: 2f3d 82bb 92b3 443d 6899 473c f50d 48bd
000003b0: 9cba 93bd 8f5c 803a c76f 4e3d 701b 173e
000003c0: 3109 b8bd 9f82 853e 958f 303d 3a4a d73d
000003d0: acff 1bbf 03bd b5bd 2b96 263e bb4d b03d
000003e0: 080b 5bbd 605c 8ebc 911a 4fbd f55f c4bc
000003f0: 5b9d 413d 526f b83c 6269 193b 0361 623d
-0.51572484 -1.2384871 -0.4267398 -0.04634445 -0.02237196 -0.064302154 -0.0839819 -0.044186547
0.03516375 -0.03183812 -0.06662973 0.007011742 -0.15727158 0.031617913 -0.03128892 -0.0013800021
1.2030327 0.73551744 0.081281304 0.09479822 -0.32117274 -1.3806391 -0.19395335 -0.024418026
-0.06831603 0.057069544 0.041654132 0.038817383 -0.089334555 -0.0090112295 -0.020285038 0.007421938
-0.22249065 0.9287111 0.09255452 0.027739244 -0.112157285 -0.81318814 -0.40354863 0.08856543
-0.07470498 0.112942465 -0.03682337 -0.014314321 -0.007303693 0.006104717 0.003953825 0.025675628
0.219632 -0.10293592 0.009780536 -0.058172543 -0.055347454 0.026255231 0.073977694 0.14758754
0.0530782 0.06366124 -0.011515469 -0.011691228 0.11062531 0.05634581 0.08256726 0.016691891
-0.16550261 0.9064417 0.6433839 0.13129728 -0.61235297 -1.40314 0.035354536 -0.0264335
-0.13437054 -0.041630868 -0.07011617 -5.708198e-05 -0.0041857916 0.007156922 -0.0128578255 0.068308994
-0.8295109 -1.2378196 0.043203935 0.06012494 -0.1732709 -0.10157271 0.048310827 0.090521485
0.026245696 0.03675373 0.007698022 0.032607276 -0.030594625 -0.075870864 0.050904557 0.00088439864
-0.32783356 -0.584713 -0.4133124 0.004376359 -0.054685805 -0.08905134 -0.012810405 0.047687892
-0.024951782 -0.058689345 -0.08148952 -0.023412976 0.06741242 0.017618997 0.059321456 0.004122669
0.20394884 -0.021792265 0.14079963 -0.0109782 0.118166566 -0.005776327 0.040613506 0.058053743
0.057280425 0.039100982 -0.03803824 0.030343316 0.023960343 0.009129162 -0.0021704552 0.091552906
-1.1709889 -0.23247421 0.14148894 -0.11963276 0.11507677 -0.2339251 0.062934935 0.08824632
0.052716363 0.008946103 -0.04232906 -0.0017066719 0.10086162 0.0846013 -0.010590704 0.019715674
0.56579137 0.49133223 0.08521914 0.14304926 -0.31749335 -0.6638188 -0.49309707 0.09505436
-0.037379064 0.024442656 -0.049757697 -0.02121579 -0.007152198 -0.00224443 -0.00031395414 -0.043952942
0.36170718 0.34672037 0.09425843 0.013012027 0.18435496 0.061441544 0.07100198 0.18555579
0.03805771 -0.017772142 0.06660674 0.074267924 0.08896851 0.037866376 -0.01340786 -0.065348074
0.11910615 -0.33799794 -0.30111697 -0.063917175 0.12357478 0.17137471 0.109609455 -0.050965056
0.088489436 0.030698808 0.10925363 0.15342993 0.13684802 0.079638995 0.045502357 0.12162567
-0.27151674 0.048995283 -0.00016753914 -0.06732017 0.09892804 -0.119779155 0.015103265 0.05852619
-0.017968059 -0.0062342826 0.00945289 0.021348847 0.055032033 0.034435637 0.074306734 0.034764376
0.44014314 0.5296376 -0.1283947 0.10049227 -0.046950996 -0.31836182 -0.73549426 -0.016326241
-0.16789128 0.043852404 -0.028840799 -0.06426201 -0.013775811 -0.02280155 -0.017279072 -0.053165298
1.0065707 0.9432716 0.41195825 0.051545132 -0.50450903 -0.82243025 -0.087876536 0.050243076
-0.003974579 0.048022814 0.012182571 -0.048841435 -0.07213327 0.000979321 0.050399568 0.1475656
-0.08986128 0.26076218 0.04310568 0.105122045 -0.60937 -0.08873942 0.16268222 0.08608576
-0.053477317 -0.017378032 -0.050562445 -0.023971537 0.047269206 0.02251402 0.002340876 0.0552683

model.5.bias f4 [32]
00000000: d32b 833d 3cf4 bdbc abe4 263c ee1c 3bbc
00000010: 562d 16bd bcef b73b da2b 1b3d f41a 913d
00000020: 74aa af3c 249a 4b3c 8d76 363d b01e 193d
00000030: d825 2a3d cbc5 7a3c 6515 34bd c430 4a3d
00000040: 351c 8ebc 70ff 203c 20fc f3bb d9d2 383b
00000050: fbc8 bcbc d5bb 5abc 2bfe 5c3d c70c 5ebd
00000060: 7521 a7ba dbf4 393d d12c 84bb a432 c73c
00000070: abc2 683b cfa5 4f3d 1a64 a93c fc6d f0bc
0.06404843 -0.02318775 0.010186355 -0.011420472 -0.03666433 0.0056132954 0.037883617 0.07085219
0.021443583 0.012426887 0.044546653 0.03738278 0.041539997 0.015305947 -0.043965716 0.049362913
-0.017347435 0.009826526 -0.007445827 0.0028201847 -0.023045054 -0.013350447 0.05395333 -0.054211404
-0.001275106 0.045399528 -0.004033663 0.02431614 0.0035516422 0.050695237 0.020677615 -0.02934932

model.6.weight f4 [32]
00000000: e31b 1e40 eaa8 1c40 4770 f23f 153a 1540
00000010: 1cdc e23f f1ec f83f da03 0d40 46ae 1540
00000020: 0839 0d40 fe0a c43f fda4 0540 8440 1a40
00000030: c5b1 1940 9aed e43f 572a c73f d90b ae3f
00000040: 9703 2040 bf6c 1f40 fe1a 1840 70e1 0740
00000050: 29e2 3040 7307 db3f ef84 0040 2527 2140
00000060: 5a55 1940 ab35 da3f a43b cc3f 54f0 a23f
00000070: b44d e53f 7df8 1840 657b 1040 747a dd3f
2.470452 2.4478097 1.8940514 2.33167 1.7723422 1.9447309 2.20336 2.3387618
2.206606 1.5315855 2.088195 2.4101877 2.4014752 1.788501 1.5559796 1.3597366
2.500219 2.4910123 2.3766475 2.1231346 2.7638037 1.7111648 2.0081136 2.5180142
2.3958344 1.7047628 1.5955701 1.2729592 1.7914338 2.3901665 2.2575314 1.7302995

model.6.bias f4 [32]
00000000: 0de9 9cbf 45c9 94bf 9c9d 7ebf 437e a4bf
00000010: c788 3a3f 9b9b a3bf 42fb 95bf 632f 8abf
00000020: 03ff 833f f154 033e 4260 1c3f ec57 a0bf
00000030: 67c5 95bf 8b4a 49bf 851b 64bf c992 df3e
00000040: c31f 99bf b846 993f 1bf9 a5bf b623 533f
00000050: 1853 a23f 6774 a5bf a1a7 4f3f 7f7c 9cbf
00000060: e926 9dbf 3195 8fbf 9c09 74bf 0084 ef3e
00000070: 8f32 7abf ddf1 8f3f 6b01 87bf 3fac 89bf
-1.2258621 -1.1623923 -0.9945924 -1.2851032 0.72864956 -1.2781862 -1.1717303 -1.0795711
1.0312198 0.12825371 0.6108438 -1.2526832 -1.1700867 -0.7862937 -0.8910449 0.43666676
-1.1962818 1.1974707 -1.2966646 0.82476366 1.2681608 -1.2926148 0.81115156 -1.2225493
-1.22775 -1.1217405 -0.9532716 0.46780396 -0.97733396 1.1245686 -1.0547308 -1.075569

model.6.running_mean f4 [32]
00000000: dec3 3a40 1390 7e3f 1529 283f ef41 9cbf
00000010: 03fb f7bd c2ab a63e f264 9e3e 9d9d 0cc0
00000020: 1fa8 3d3f 450a 84bf 6d4b 323f b542 f13e
00000030: 2489 aac0 6d11 e73e ffa4 26bf 5cf1 1f3f
00000040: fee6 64bf 5ff6 e23f 4d89 053f 060c 7a3e
00000050: f65c 8ebf e3c2 bbbe b489 873f ee24 0ac0
00000060: 98e1 0bbf 01f1 823f 936c 19bf 9c8f 543f
00000070: c40f 843f e579 5340 2948 b73e cc99 9b3e
2.9182048 0.9943859 0.65687686 -1.2207621 -0.121084236 0.32552916 0.3093639 -2.19712
0.7408466 -1.0315634 0.6964634 0.47121206 -5.329241 0.45130482 -0.65095514 0.6247766
-0.89414966 1.7731436 0.5216263 0.24418649 -1.112212 -0.36672124 1.0588899 -2.158504
-0.54641104 1.0229799 -0.59931296 0.8303163 1.0317311 3.3043149 0.3579724 0.30390775

model.6.running_var f4 [32]
00000000: 63ad 8541 45e9 9d41 d78d 3d40 db27 6641
00000010: 6d2c 2a40 e3a0 0840 8365 b040 6426 2542
00000020: d850 8740 de19 5c40 c46e ad40 e1c4 4042
00000030: 9e2f c341 1a41 bc40 5c6f 3e40 51b3 5c40
00000040: 1a6c 5642 ac3b 9b41 0f23 be40 eb54 a140
00000050: 9286 0341 8fb2 8840 135d 9740 2809 1c42
00000060: 91df 6742 4074 bd3f 8a9b 3a40 a4c4 3f40
00000070: b2a1 d83f b046 7f41 0798 0a41 b497 5240
16.709661 19.738901 2.9617822 14.38473 2.6589615 2.1348197 5.5123916 41.28749
4.2286186 3.4390788 5.419771 48.192265 24.39825 5.882947 2.9755468 3.4484446
53.605568 19.404137 5.9417796 5.041616 8.220354 4.2717967 4.7301116 39.00894
57.968327 1.4801102 2.9157434 2.996377 1.6924345 15.954758 8.662116 3.2905092

model.8.weight f4 [1, 32, 1, 1]
00000000: 376a 0dc0 2510 05c0 879c 923f e664 f9bf
00000010: f3dc 373f ca20 ca3f 256c 0240 647d 01c0
00000020: 0514 8e3f e300 c83e 386f 6c3f 05f5 14c0
00000030: 3204 0fc0 8bcb 8d3f 3e6b 4a3f 1074 c53e
00000040: 6ee3 15c0 2b94 aebf 0efa 1640 b394 833f
00000050: fef4 cfbf 345a be3f 0d13 6b3f d51a 1ac0
00000060: 787a 12c0 c799 8f3f ca98 773f 7669 b13e
00000070: 1f00 993f ec0c abbf a6f2 e2bf 0544 ad3f
-2.2096078 -2.0791104 1.1454018 -1.9483917 0.71821517 1.5791256 2.0378506 -2.0232782
1.109986 0.39063177 0.92357206 -2.3274548 -2.234631 1.1077741 0.7906989 0.3856511
-2.3420062 -1.3638967 2.3590121 1.0279754 -1.6246641 1.4871278 0.91825944 -2.4078877
-2.288725 1.1218804 0.9671751 0.34650773 1.1953162 -1.3363318 -1.77303 1.3536383
