G.pth (torch, 363736 bytes, 49 tensors)

encoder.0.weight f4 [8, 1, 3, 3]
0.20679905 0.05348455 0.02616051 0.06893646 -0.118503995 -0.23987597 -0.27088165 -0.18754992
-0.13089299 0.05903994 0.15026677 0.13135019 -0.0666473 -0.00543416 0.08252638 -0.34695756
-0.2379948 -0.25980765 0.0133343795 -0.1360001 -0.19318442 0.15201119 -0.008932844 -0.19147664
0.29136938 0.20333114 0.03043225 -0.04977499 0.07022501 -0.03818695 0.27202243 0.2644765
-0.14398892 0.25374264 0.2621175 0.035089377 -0.029155852 -0.1369973 -0.070718296 -0.12302481
0.09329467 0.18806593 -0.041014742 0.3064481 0.49330238 -0.15619399 -0.18595132 0.034447234
-0.17527625 0.008508801 0.32009825 -0.03221802 0.14143226 0.25491998 0.18812573 0.1040949
0.0034581262 0.15098666 -0.026407372 -0.23945007 0.005954777 -0.19799855 -0.29186207 0.025513278
0.14393847 0.121753395 -0.24017507 -0.1150131 0.041480888 -0.12195027 -0.2127195 -0.26809004
00000000: 21c3 533e 9e12 5b3d 914e d63c 8f2e 8d3d
00000010: 39b2 f2bd 0ca2 75be 00b1 8abe 160d 40be
00000020: d008 06be ddd3 713d 88df 193e aa80 063e
00000030: 617e 88bd 0a11 b2bb 9703 a93d 6ca4 b1be
00000040: e9b4 73be 8205 85be 7178 5a3c 9c43 0bbe
00000050: 23d2 45be d2a8 1b3e 105b 12bc 7412 44be
00000060: 5e2e 953e 0a36 503e 0e4d f93c dce0 4bbd
00000070: 21d2 8f3d eb69 1cbd 8646 8b3e 7769 873e
00000080: d571 13be 8eea 813e 4434 863e e1b9 0f3d
00000090: 41d8 eebc 0549 0cbe c1d4 90bd 6ef4 fbbd
000000a0: 4711 bf3d 5b94 403e 13ff 27bd c4e6 9c3e
000000b0: 2192 fc3e 51f1 1fbe 066a 3ebe 8b18 0d3d
000000c0: 9e7b 33be 8068 0b3c ebe3 a33e 0bf7 03bd
000000d0: 9ed3 103e df84 823e 08a4 403e b52f d53d
000000e0: bba1 623b 3f9c 1a3e 4654 d8bc 6632 75be
000000f0: 4a20 c33b 22c0 4abe f26e 95be 3901 d13c
00000100: 9b64 133e d859 f93d 74f0 75be fd8b ebbd
00000110: dde7 293d 10c1 f9bd 24d3 59be 1943 89be

encoder.0.bias f4 [8]
0.12774761 -0.13469417 -0.4247208 -0.1272193 0.20910043 -0.052964926 0.29469264 0.23192462
00000000: 45d0 023e 45ed 09be 0175 d9be c745 02be
00000010: 6c1e 563e c0f1 58bd f4e1 963e a67d 6d3e

encoder.3.weight f4 [16, 8, 3, 3]
0.085860394 0.18014355 0.2320935 0.34418768 0.1980471 -0.02662563 0.44052652 0.0713495
-0.038424004 0.017952995 0.12561598 -0.021475002 -0.01846427 -0.12085229 -0.23125824 0.057031345
-0.07989347 -0.21599306 0.071903326 -0.02433324 -0.17867728 -0.24439523 -0.29891515 -0.13251548
-0.35896844 -0.15115032 0.0235367 -0.1119746 -0.23012051 -0.23391531 -0.24239567 -0.23564383
0.013742721 -0.2795335 -0.05332654 0.025594631 -0.20599836 -0.14826211 -0.06289937 -0.030549195
0.07058194 0.079857096 0.022647789 0.10399928 0.26199317 -0.27823663 -0.1258336 -0.05297323
0.013545041 0.05192451 0.13053468 0.14488767 0.1304309 0.24309337 0.22129306 0.10796733
0.116234995 0.19108455 0.06478585 -0.0117552765 0.29449096 0.09716966 0.19857302 -0.047449086
0.066067524 -0.19374701 -0.12142266 -0.16140784 -0.20905642 -0.089398995 -0.119956754 -0.33832374
-0.24294932 -0.14403357 0.019157166 -0.3449809 -0.10620548 -0.10152081 -0.49071553 -0.33343545
-0.34544712 -0.39391607 -0.36522362 -0.021476932 -0.3593039 -0.21688953 -0.08662448 -0.42985195
-0.4167007 -0.20041983 -0.19049762 -0.016541589 0.14319149 -0.21371873 0.119804956 0.10919096
0.06576062 0.2713141 0.047685727 0.0345122 0.14850618 0.066609874 0.08067459 0.091084
-0.04246323 0.215137 0.050226483 -0.013584565 0.1322155 -0.010573533 -0.22682059 -0.022139436
-0.12497017 -0.1786202 -0.10324409 -0.076686986 -0.06808572 0.21590847 -0.004807078 -0.1760656
0.015118038 -0.09074613 -0.20963573 -0.14290373 -0.05989749 -0.14025375 -0.10027804 0.09997762
0.14458887 -0.040302344 0.1493545 0.1537439 -0.19137529 0.007143003 -0.17133269 -0.42569524
-0.2657882 -0.04823399 -0.3416823 -0.14453678 -0.050072145 -0.10872359 -0.09697679 0.095742725
-0.5643966 -0.074425705 0.33905363 -0.216466 0.15264164 0.073817156 -0.05461942 -0.031171715
-0.11101807 -0.55831486 0.036138173 0.46540996 -0.23212644 0.05866633 0.1482641 -0.07662954
-0.043962445 -0.071648486 0.04554966 0.009006695 0.034957066 0.1677279 0.07615716 -0.10437123
0.24023837 0.24237147 -0.09130849 0.22284772 0.17649949 0.061375048 0.2773258 0.09337019
0.0758432 0.17118117 0.01512103 0.10325503 0.0686423 0.13973793 0.027068203 0.049206898
0.07154151 -0.0072720856 -0.06492738 0.11751629 0.07761607 0.072645135 0.13670662 0.010339044
0.061121587 0.09923646 -0.058237437 -0.08812268 0.031992663 -0.016466595 -0.0687409 0.283925
0.30838534 0.14690156 0.118714936 0.06512601 0.2199895 0.24694929 -0.1963786 -0.3418307
-0.11535523 0.24298741 -0.56563926 -0.32305455 0.037710585 -0.13539122 -0.24611056 -0.031294342
0.30466655 -0.04713606 -0.23260091 0.22626927 -0.11062296 -0.3277666 0.042032022 -0.36617753
-0.30423048 0.24845809 0.037174117 -0.17263587 -0.03487691 -0.1986341 -0.32571548 -0.18406962
-0.47497028 -0.535672 -0.12138843 -0.22519305 -0.11545183 -0.3387282 -0.3214315 -0.16637176
-0.18007194 -0.16756971 -0.066251956 -0.13107437 -0.07224761 -0.03127207 -0.12573378 -0.06522488
0.051692076 -0.07127677 0.026484504 0.13892557 -0.00047115798 0.050928984 -0.09146757 0.03333426
00000000: 93d7 af3d 8d77 383e eba9 6d3e 5e39 b03e
00000010: dccc 4a3e fe1d dabc b18c e13e b01f 923d
00000020: 7d62 1dbd 2912 933c 7aa1 003e 58ec afbc
00000030: 6142 97bc 6881 f7bd f6ce 6cbe b399 693d
00000040: 309f a3bd 492d 5dbe 0d42 933d 8156 c7bc
00000050: 2df7 36be be42 7abe 680b 99be 23b2 07be
00000060: b6ca b7be 26c7 1abe 0ad0 c03c f052 e5bd
00000070: b6a4 6bbe 7f87 6fbe 9236 78be 9e4c 71be
00000080: 2629 613c 041f 8fbe ee6c 5abd d5ab d13c
00000090: 3cf1 52be 06d2 17be 63d1 80bd 4e42 fabc
000000a0: 448d 903d 1e8c a33d db87 b93c 93fd d43d
000000b0: f823 863e 0875 8ebe 86da 00be 75fa 58bd
000000c0: 05ec 5d3c ccae 543d e2aa 053e 6f5d 143e
000000d0: ae8f 053e 78ed 783e a69a 623e fa1d dd3d
000000e0: 9d0c ee3d abab 433e 72ae 843d 3499 40bc
000000f0: 85c7 963e e300 c73d ba56 4b3e f959 42bd
00000100: 694e 873d 9e65 46be 72ac f8bd 1948 25be
00000110: e312 56be d216 b7bd e3ab f5bd c538 adbe
00000120: b5c7 78be 897d 13be 7def 9c3c 56a1 b0be
00000130: 4282 d9bd 24ea cfbd 113f fbbe 0db8 aabe
00000140: 72de b0be 5eaf c9be 97fe babe 64f0 afbc
00000150: aef6 b7be 4a18 5ebe 2d68 b1bd 8e15 dcbe
00000160: cb59 d5be db3a 4dbe cf11 43be 3a82 87bc
00000170: caa0 123e 15d9 5abe 4d5c f53d 839f df3d
00000180: 81ad 863d afe9 8a3e 1c52 433d aa5c 0d3d
00000190: 0112 183e c26a 883d b838 a53d 408a ba3d
000001a0: eded 2dbd e04c 5c3e 49ba 4d3d cc91 5ebc
000001b0: 8063 073e 9d3c 2dbc a843 68be c35d b5bc
000001c0: 5cf0 ffbd 37e8 36be a371 d3bd 110e 9dbd
000001d0: 8770 8bbd 1c17 5d3e b184 9dbb 8a4a 34be
000001e0: a6b1 773c 1bd9 b9bd c0aa 56be 5b55 12be
000001f0: 1257 75bd ae9e 0fbe 935e cdbd 11c1 cc3d
00000200: 1b0f 143e 1214 25bd 63f0 183e 0a6f 1d3e
00000210: e2f7 43be da0f ea3b d671 2fbe baf4 d9be
00000220: 6415 88be 0191 45bd fcf0 aebe 7301 14be
00000230: 7318 4dbd 79aa debd c49b c6bd c314 c43d
00000240: 4c7c 10bf 816c 98bd 7098 ad3e 43a9 5dbe
00000250: 174e 1c3e 732d 973d 9db8 5fbd d35b ffbc
00000260: 715d e3bd b9ed 0ebf 9f05 143d 374a ee3e
00000270: 8eb2 6dbe 1b4c 703d 8bd2 173e f3ef 9cbd
00000280: f711 34bd 71bc 92bd 4892 3a3d d190 133c
00000290: 242f 0f3d ddc0 2b3e 49f8 9b3d 95c0 d5bd
000002a0: 0c01 763e 3a30 783e f2ff babd 3132 643e
000002b0: 48bc 343e 6764 7b3d a6fd 8d3e df38 bf3d
000002c0: ae53 9b3d 1e4a 2f3e 32be 773c 6077 d33d
000002d0: 5694 8c3d 7617 0f3e 23be dd3c 2c8d 493d
000002e0: 5b84 923d ad4a eebb a5f8 84bd 61ac f03d
000002f0: 2df5 9e3d f9c6 943d d2fc 0b3e 1865 293c
00000300: a15a 7a3d 7c3c cb3d 618a 6ebd aa79 b4bd
00000310: bd0a 033d f4e4 86bc 07c8 8cbd 9e5e 913e
00000320: afe4 9d3e 5d6d 163e d120 f33d c960 853d
00000330: ed44 613e 46e0 7c3e 7917 49be 6f04 afbe
00000340: 5d3f ecbd b1d1 783e bccd 10bf 6867 a5be
00000350: 6a76 1a3d ffa3 0abe 6804 7cbe 7f2e 00bd
00000360: 41fd 9b3e be11 41bd ef2e 6ebe 22b3 673e
00000370: 4a8e e2bd 06d1 a7be c529 2c3d 9f7b bbbe
00000380: 19c4 9bbe cc6b 7e3e e343 183d 75c7 30be
00000390: 17db 0ebd bd66 4bbe 2ec4 a6be bf7c 3cbe
000003a0: 4e2f f3be cd21 09bf 7f9a f8bd 0299 66be
000003b0: 0272 ecbd c86d adbe ab92 a4be 5c5d 2abe
000003c0: c764 38be 6597 2bbe 1baf 87bd 5c38 06be
000003d0: 8ef6 93bd 2417 00bd 5bc0 00be 9f94 85bd
000003e0: 12bb 533d 8ef9 91bd 08f6 d83c 8142 0e3e
000003f0: c105 f7b9 e99a 503d 5953 bbbd 8189 083d

encoder.3.bias f4 [16]
-0.23404048 -0.32708982 -0.08007911 -0.07943685 -0.08761962 0.15693572 -0.08943114 -0.081356704
-0.1585608 0.029263664 0.33399272 0.07666631 0.12789999 -0.0062571247 0.06977733 -0.07667626
00000000: 4fa8 6fbe 5178 a7be 8400 a4bd caaf a2bd
00000010: ea71 b3bd c2b3 203e ac27 b7bd 589e a6bd
00000020: c35d 22be 5aba ef3c 1801 ab3e 3a03 9d3d
00000030: 37f8 023e 9108 cdbb 6be7 8e3d 7108 9dbd

encoder.6.weight f4 [32, 16, 3, 3]
-0.0059640645 0.011863979 0.29601574 -0.18466772 -0.2010079 0.0825512 -0.0053446996 -0.31290478
0.047302905 -0.3466111 -0.3643551 -0.03261986 -0.046556104 -0.08059657 0.14078869 -0.010410454
-0.03375868 0.040518776 -0.36587983 -0.04253601 0.09990013 -0.4453149 -0.17205386 0.03179064
-0.20170233 -0.25665525 -0.16530418 0.031440537 0.09991806 0.17372583 -0.12172455 -0.27390176
-0.107548766 -0.032992706 -0.24654807 -0.17578569 -0.09691589 0.19363303 0.12746073 -0.30113408
-0.039604682 0.004716865 -0.17108828 -0.2827916 -0.20670442 -0.069840916 -0.15237232 -0.23041259
0.21248081 0.119440444 -0.1566073 0.23373437 0.16513926 -0.08409709 0.15593617 0.15659627
0.2127473 -0.13712576 -0.3321438 0.023753662 -0.05659146 -0.27713707 -0.019067455 0.019187456
-0.013596068 -0.11390343 0.2436574 0.095689006 0.110825755 0.19818749 0.0013725134 -0.052163795
-0.15420917 -0.2126487 -0.21559502 -0.018488089 -0.18296604 -0.060714386 0.24860422 -0.037662018
-0.08312246 -0.3079424 -0.35875648 -0.1353134 -0.14724955 -0.08294557 0.018615134 0.24421096
0.18154044 0.081164025 -0.34583598 0.0027659254 0.128822 -0.2986598 -0.109582365 0.15168032
-0.22467266 -0.1950265 -0.13338572 -0.208388 -0.0011864403 0.12690845 -0.12308408 -0.0680524
0.022541737 -0.16764116 -0.10840822 -0.06173333 -0.05269271 -0.046964616 0.0030099778 -0.1407837
-0.024810523 0.018250026 0.08115962 -0.13758482 -0.09462161 0.1680044 0.123388276 0.1683166
-0.14093971 -0.071593955 -0.045110475 -0.077211365 -0.26843327 -0.11271388 0.15975942 0.10194083
-0.114814095 0.42622197 0.45998892 0.09180718 0.42707956 0.54381883 0.29811427 -0.21410419
-0.042417746 0.044317618 0.003029546 0.05302428 0.09633497 -0.13331272 0.061880983 -0.09866818
0.154037 -0.09241583 -0.12266291 0.0116290655 -0.119573504 -0.014860606 -0.1362805 0.09542715
0.25621206 0.21440277 0.008318562 0.031143742 0.10035296 -0.24416777 -0.15023322 -0.05074521
-0.17985438 -0.15367031 0.0012807569 0.050934438 -0.10646336 -0.12733072 0.0012571418 0.10927264
-0.14647132 -0.004102615 -0.012714914 0.041899364 0.016381098 -0.19780675 -0.054985095 0.12320218
0.06887056 -0.12488755 0.06549346 0.08714558 -0.094919346 -0.13013466 -0.27688974 -0.15662156
0.005472654 0.168146 -0.11201328 -0.06804216 0.090577506 0.006287564 0.50707877 0.7822866
0.07389951 0.08094455 0.19657472 -0.22181152 -0.23249826 -0.046493545 0.24087912 -0.16353863
-0.17135634 -0.040711466 -0.07440131 0.021857759 -0.19509181 0.053906918 -0.0050971415 -0.046700906
-0.25378796 -0.0961276 0.123526104 0.18877816 0.16369307 0.0814446 0.04165513 0.025908895
0.011617442 0.19246754 0.23117274 0.11713846 0.1700394 0.23775017 0.04905273 0.038793765
0.07414339 0.083196044 0.05003469 0.0689226 0.1279526 0.2137088 0.3681907 0.11801148
0.029877648 0.01681864 0.11610217 -0.135344 -0.22038443 -0.07653068 -0.06389796 -0.09195386
-0.082179226 0.019218912 0.10316151 -0.08203475 -0.28690088 -0.26925224 -0.103152074 -0.1145702
-0.027171504 0.09685377 0.1782177 0.4021662 0.010651243 -0.0031090688 -0.07777734 0.00782086
00000000: 336e c3bb 2261 423c 608f 973e 8919 3dbe
00000010: 04d5 4dbe 9b10 a93d 9722 afbb 0e35 a0be
00000020: b1c0 413d 0377 b1be c08c babe 679c 05bd
00000030: 9db1 3ebd d10f a5bd e92a 103e 9c90 2abc
00000040: 8b46 0abd 04f7 253d 9a54 bbbe 3d3a 2ebd
00000050: 7098 cc3d 5100 e4be e32e 30be e736 023d
00000060: 0e8b 4ebe 5168 83be 8045 29be cbc7 003d
00000070: d7a1 cc3d 2fe5 313e b94a f9bd da3c 8cbe
00000080: 8742 dcbd 5c23 07bd 1977 7cbe 2a01 34be
00000090: d77b c6bd bd47 463e 1185 023e 3f2e 9abe
000000a0: 8538 22bd ee8f 9a3b c431 2fbe 10ca 90be
000000b0: 53aa 53be c108 8fbd 7d07 1cbe 47f1 6bbe
000000c0: 9294 593e 319d f43d aa5d 20be 1058 6f3e
000000d0: 441a 293e 183b acbd bbad 1f3e c65a 203e
000000e0: 6eda 593e b26a 0cbe c10e aabe 0a97 c23c
000000f0: 72cc 67bd e9e4 8dbe 5a33 9cbc 032f 9d3c
00000100: 0bc2 5ebc 3446 e9bd 5381 793e 99f8 c33d
00000110: 9df8 e23d a9f1 4a3e e8e5 b33a b4a9 55bd
00000120: 02e9 1dbe 95c0 59be f1c4 5cbe 5574 97bc
00000130: 735b 3bbe a6af 78bd 1b92 7e3e 7d43 1abd
00000140: 1c3c aabd a0aa 9dbe eeae b7be 998f 0abe
00000150: 96c8 16be 5edf a9bd c47e 983c 7012 7a3e
00000160: bde5 393e 5339 a63d 6a11 b1be 8744 353b
00000170: eae9 033e f0e9 98be b86c e0bd 1652 1b3e
00000180: 9710 66be 07b5 47be 4496 08be aa63 55be
00000190: 5582 9bba 4af4 013e 8213 fcbd 0f5f 8bbd
000001a0: 73a9 b83c 20aa 2bbe 2105 debd 17dc 7cbd
000001b0: 50d4 57bd f85d 40bd 0c43 453b 9a29 10be
000001c0: 703f cbbc 1481 953c 0437 a63d 09e3 0cbe
000001d0: fac8 c1bd 5809 2c3e feb2 fc3d 305b 2c3e
000001e0: 8052 10be da9f 92bd c3c5 38bd fe20 9ebd
000001f0: 1670 89be 89d6 e6bd f997 233e 5bc6 d03d
00000200: a723 ebbd c439 da3e ab83 eb3e 6705 bc3d
00000210: 2caa da3e b637 0b3f 6fa2 983e 213e 5bbe
00000220: 3bbe 2dbd 6486 353d 598b 463b fd2f 593d
00000230: 454b c53d 2183 08be ea76 7d3d 8b12 cabd
00000240: e0bb 1d3e 8344 bdbd b136 fbbd d687 3e3c
00000250: f4e2 f4bd e679 73bc 1e8d 0bbe 4f6f c33d
00000260: 3a2e 833e 668c 5b3e 944a 083c 2921 ff3c
00000270: da85 cd3d 1e07 7abe bdd6 19be 36da 4fbd
00000280: bf2b 38be c05b 1dbe 12df a73a a1a0 503d
00000290: 7609 dabd fc62 02be aec6 a43a 55ca df3d
000002a0: 94fc 15be 3b6f 86bb 3752 50bc ab9e 2b3d
000002b0: a731 863c da8d 4abe 0d38 61bd 6d51 fc3d
000002c0: 020c 8d3d 0bc5 ffbd 6f21 863d 6279 b23d
000002d0: 1365 c2bd 0542 05be 7ec4 8dbe 6761 20be
000002e0: f353 b33b 772e 2c3e 3867 e5bd b059 8bbd
000002f0: b380 b93d e907 ce3b eacf 013f ef43 483f
00000300: a058 973d 42c6 a53d e24a 493e 8f22 63be
00000310: 0614 6ebe 0470 3ebd 04a9 763e ac76 27be
00000320: 0978 2fbe 11c1 26bd b75f 98bd 0b0f b33c
00000330: 26c6 47be 80cd 5c3d ec05 a7bb 7349 3fbd
00000340: 7ff0 81be 8cde c4bd 41fb fc3d 104f 413e
00000350: 289f 273e 6dcc a63d 929e 2a3d e43e d43c
00000360: 1557 3e3c 3616 453e 8cb8 6c3e 4ae6 ef3d
00000370: cf1e 2e3e c874 733e 84eb 483d 36e6 1e3d
00000380: 7dd8 973d b062 aa3d 2df1 4c3d 4b27 8d3d
00000390: 0206 033e 7bd6 5a3e 7e83 bc3e 01b0 f13d
000003a0: f8c1 f43c 3fc7 893c f9c6 ed3d 9e97 0abe
000003b0: 75ac 61be 1ebc 9cbd efdc 82bd 4e52 bcbd
000003c0: 954d a8bd fb70 9d3c 5746 d33d d601 a8bd
000003d0: ace4 92be 6edb 89be 6541 d3bd c8a3 eabd
000003e0: c696 debc 455b c63d b37e 363e bae8 cd3e
000003f0: 8d82 2e3c 85c1 4bbb ba49 9fbd 1023 003c

encoder.6.bias f4 [32]
-0.27094653 0.26855576 -0.23377547 -0.041763213 -0.013853585 0.06794421 -0.014929223 0.05926004
0.09621511 0.006100999 -0.039730687 -0.02636089 -0.1285803 0.08954953 0.05826858 -0.0712395
-0.08608436 -0.069963515 0.16864976 -0.10890016 -0.12172298 0.028635139 -0.087257735 0.09830405
0.12413697 0.05018797 -0.17647536 -0.18313155 -0.033352885 0.07767929 0.2695734 0.042806722
00000000: 81b9 8abe 2480 893e d662 6fbe e70f 2bbd
00000010: 26fa 62bc 5526 8b3d b399 74bc a8ba 723d
00000020: 6d0c c53d e4ea c73b a5bc 22bd cbf2 d7bc
00000030: 8eaa 03be be65 b73d 09ab 6e3d 04e6 91bd
00000040: ff4c b0bd 0849 8fbd 86b2 2c3e 0c07 dfbd
00000050: e649 f9bd 3d94 ea3c 2fb4 b2bd a253 c93d
00000060: 863b fe3d e791 4d3d f5b5 34be d686 3bbe
00000070: 099d 08bd 5216 9f3d 8605 8a3e 1a56 2f3d

bottle_neck.0.conv_block.1.weight f4 [32, 32, 3, 3]
-0.013331946 -0.063798234 -0.41213593 -0.031852677 0.22209561 -0.15939718 0.11369731 0.0030079337
-0.2499566 -0.16296187 0.20307419 -0.08623016 -0.12854856 -0.095734894 -0.044519678 0.06502824
-0.08183766 0.07326419 0.1973227 0.040749993 -0.08037385 0.0057492717 0.082671836 0.24915896
-0.041796714 -0.1318285 0.2691625 -0.11804412 -0.25997418 -0.21584667 0.16237527 0.31339544
-0.036312614 0.0701427 -0.24252087 0.07675897 -0.051712967 0.17007288 -0.16216521 -0.10853921
0.20600878 -0.13521211 0.16442932 0.08634778 -0.09254299 -0.035314113 -0.01838858 0.032912225
-0.251207 0.08968007 -0.099709354 -0.12220667 -0.24192733 0.060464386 0.18476717 -0.15270962
0.07327851 0.010590809 0.053964447 -0.0129548805 0.0045167706 -0.06348509 0.17384401 -0.04546653
-0.25957295 -0.4535804 0.04124907 0.17899069 0.17246923 0.20921879 -0.19250391 0.14062363
-0.15582325 -0.01112186 -0.18662165 0.2532149 -0.042583875 -0.11253516 -0.08711511 -0.05442669
-0.13528249 -0.022817161 -0.1583777 -0.29902986 -0.101583205 0.22913933 -0.14529087 0.19839238
-0.03474859 -0.12632445 0.05399125 0.112924926 -0.009886288 -0.10710135 0.0032365536 -0.17171519
0.17079444 0.0012482068 0.0896129 -0.2945972 -0.26170412 -0.18560442 0.12531777 0.13865955
-0.14399427 0.03219703 -0.3085533 -0.12928542 -0.17783001 -0.035545774 -0.3283443 0.037434008
0.21622989 -0.1262565 -0.113368146 -0.103364564 0.010747124 0.05285353 -0.23121393 -0.07653462
0.1228574 0.25093114 0.007589077 -0.18922292 -0.047255326 -0.020952063 0.30920553 0.06752402
0.3611133 -0.09922812 -0.3249362 0.2921622 0.03427049 0.18085715 0.10345289 0.068003364
-0.19189829 -0.07835653 0.0876989 -0.10684056 -0.14491701 0.26548183 0.21099037 -0.3110205
-0.016233992 -0.0030355302 0.23177914 -0.04943616 0.041607752 -0.23399487 0.10905376 -0.16703571
0.1480436 0.03971448 0.044578128 0.16227704 0.10929956 -0.037217535 -0.0017038179 -0.06334124
0.007813745 -0.13920398 0.006761648 0.24399963 -0.3071796 -0.071783766 -0.20094436 -0.21796085
0.04289131 0.17901161 -0.33482748 0.34792808 -0.052823663 0.20577432 -0.014312105 0.011828708
0.2920526 -0.18125182 0.07045669 0.21858604 0.03013953 -0.065965086 -0.1940134 -0.051763583
-0.13057494 0.202249 0.20030767 0.25555575 -0.17585438 0.18450004 -0.2074812 0.109443784
0.20639643 -0.21775997 0.44174296 -0.08263524 0.026897483 0.13840339 -0.17482378 -0.17091888
-0.32260644 -0.09413391 0.047353372 -0.23231252 -0.03988779 -0.23189399 -0.0011432768 -0.019961176
-0.057517294 -0.084594354 -0.02641923 0.26025894 -0.048573263 -0.1308353 -0.08393643 0.015813088
0.029783439 0.1954743 0.04469058 -0.071615934 -0.17962956 0.2605571 0.15579647 0.14484112
0.04432709 0.24837703 -0.034162354 0.08740765 -0.026552755 0.060902108 0.11410434 -0.09557228
-0.023087624 0.15793753 0.23805918 0.20260389 0.1303154 0.08875033 -0.012942707 -0.5179267
0.15710804 0.2260369 0.17757873 -0.13633783 0.26332858 -0.13727626 -0.09973754 -0.17882648
0.017872699 0.21555376 0.25458062 -0.005991329 -0.11299261 -0.18323898 -0.1569329 -0.045205943
00000000: 3c6e 5abc a6a8 82bd 7b03 d3be f477 02bd
00000010: 086d 633e 0439 23be 23da e83d c120 453b
00000020: 9ff4 7fbe 7adf 26be aef2 4f3e 7099 b0bd
00000030: 3ca2 03be a810 c4bd 445a 36bd 872d 853d
00000040: 819a a7bd 890b 963d f60e 4a3e 77e9 263d
00000050: 0c9b a4bd 6364 bc3b da4f a93d 8723 7f3e
00000060: 0833 2bbd 0dfe 06be abcf 893e 1ec1 f1bd
00000070: 561b 85be e906 5dbe b445 263e 5e75 a03e
00000080: 89bc 14bd faa6 8f3d 6457 78be cf33 9d3d
00000090: fad0 53bd 9627 2e3e a30e 26be ce49 debd
000000a0: f7f3 523e 0b75 0abe 2960 283e 1bd7 b03d
000000b0: 2e87 bdbd 88a5 10bd a6a3 96bc f8ce 063d
000000c0: 349e 80be 2faa b73d 6b34 ccbd 7e47 fabd
000000d0: ccbb 77be 81a9 773d 9b33 3d3e e95f 1cbe
000000e0: 0b13 963d 1385 2d3c d309 5d3d b540 54bc
000000f0: 6b01 943b 7904 82bd 2a04 323e 1d3b 3abd
00000100: bfe6 84be b13b e8be c9f4 283d 5649 373e
00000110: c69b 303e 733d 563e bf1f 45be a4ff 0f3e
00000120: 2190 1fbe 7638 36bc bf19 3fbe 62a5 813e
00000130: 6e6c 2ebd d578 e6bd 6869 b2bd 85ee 5ebd
00000140: 7e87 0abe 0eeb babc c42d 22be 711a 99be
00000150: db0a d0bd 80a3 6a3e 21c7 14be 5f27 4b3e
00000160: 8a54 0ebd 325b 01be ee25 5d3d 2f45 e73d
00000170: 19fa 21bc f457 dbbd 5c1c 543b 1bd6 2fbe
00000180: bde4 2e3e df9a a33a f886 b73d 72d5 96be
00000190: 15fe 85be 160f 3ebe 4d53 003e c5fc 0d3e
000001a0: 3c73 13be 08e1 033d b3fa 9dbe 6663 04be
000001b0: 1219 36be 7298 11bd be1c a8be 6754 193d
000001c0: 5e6b 5d3e 6249 01be 8f2d e8bd cdb0 d3bd
000001d0: b514 303c f17c 583d 58c3 6cbe 2fbe 9cbd
000001e0: a99c fb3d 0c7a 803e cbad f83b a7c3 41be
000001f0: cd8e 41bd a9a3 abbc 3050 9e3e 094a 8a3d
00000200: d8e3 b83e 1d38 cbbd 0a5e a6be 4996 953e
00000210: 375f 0c3d 9e32 393e 1cdf d33d 5945 8b3d
00000220: fc80 44be 6379 a0bd 7b9b b33d 39cf dabd
00000230: 2065 14be 3ced 873e dc0d 583e 143e 9fbe
00000240: 26fd 84bc bfef 46bb 8357 6d3e 927d 4abd
00000250: e46c 2a3d 5a9c 6fbe 9457 df3d 690b 2bbe
00000260: be98 173e a7ab 223d 8e97 363d f42b 263e
00000270: 73d8 df3d 6a71 18bd a452 dfba 0db9 81bd
00000280: 3905 003c 7d8b 0ebe d190 dd3b 0adb 793e
00000290: a546 9dbe 5e03 93bd 5cc4 4dbe 2131 5fbe
000002a0: ccae 2f3d d24e 373e 826e abbe a123 b23e
000002b0: a05d 58bd 81b6 523e 527d 6abc 33cd 413c
000002c0: eb87 953e 149a 39be 994b 903d 05d5 5f3e
000002d0: 2de7 f63c b418 87bd 73ab 46be 0d06 54bd
000002e0: 70b5 05be 5d1a 4f3e 741d 4d3e 34d8 823e
000002f0: 2c13 34be 94ed 3c3e f475 54be 1024 e03d
00000300: 9659 533e 78fc 5ebe 222c e23e aa3c a9bd
00000310: 1c58 dc3c 9eb9 0d3e 0105 33be 5c05 2fbe
00000320: ac2c a5be 48c9 c0bd 9cf5 413d 55e3 6dbe
00000330: 6161 23bd 9e75 6dbe 01da 95ba 9f85 a3bc
00000340: 4197 6bbd ce3f adbd 246d d8bc a940 853e
00000350: c2f4 46bd b0f9 05be dde6 abbd 738a 813c
00000360: 66fc f33c 6a2a 483e 780d 373d 60ab 92bd
00000370: d0f0 37be bd67 853e 1c89 1f3e 3b51 143e
00000380: 5390 353d 8c56 7e3e d3ed 0bbd c802 b33d
00000390: 2a85 d9bc 7d74 793d 89af e93d 66bb c3bd
000003a0: 4222 bdbc 60ba 213e c9c5 733e 6577 4f3e
000003b0: 6671 053e bcc2 b53d a60d 54bc d896 04bf
000003c0: eee0 203e 3876 673e 33d7 353e 259c 0bbe
000003d0: 01d3 863e 2692 0cbe 3243 ccbd 4a1e 37be
000003e0: c469 923c 20ba 5c3e 6458 823e e952 c4bb
000003f0: ab68 e7bd 00a3 3bbe 05b3 20be de29 39bd

bottle_neck.0.conv_block.2.weight f4 [32]
0.81668717 1.0018327 1.0784816 1.0723344 0.9815301 0.9150966 1.0409392 1.0971055
1.0390855 0.9220799 0.9174465 0.9876013 0.93474084 0.97723424 0.84200966 0.74990225
0.9474185 0.9718319 0.9754257 0.90062815 1.030917 1.244589 0.9601876 0.8224645
0.999057 0.9354893 0.88998187 1.2290705 0.89058375 0.9513579 0.98138756 0.9095929
00000000: 6912 513f 0e3c 803f af0b 8a3f 4142 893f
00000010: 8e45 7b3f c543 6a3f 7f3d 853f f46d 8c3f
00000020: c100 853f 6e0d 6c3f c6dd 6a3f 70d3 7c3f
00000030: 2d4b 6f3f 062c 7a3f f28d 573f 98f9 3f3f
00000040: 058a 723f fac9 783f 80b5 793f 918f 663f
00000050: 17f5 833f b14e 9f3f dbce 753f 098d 523f
00000060: 33c2 7f3f 3a7c 6f3f dad5 633f 2f52 9d3f
00000070: 4cfd 633f 318c 733f 373c 7b3f 15db 683f

bottle_neck.0.conv_block.2.bias f4 [32]
-0.3323048 -0.33730197 -0.5783247 -0.32293165 -0.4108059 -0.1990454 -0.48261604 -0.2629677
-0.38519976 -0.37468025 -0.31575724 -0.30648658 -0.097892664 -0.35216418 -0.44345918 -0.4812035
-0.4506336 -0.39848083 -0.103540204 -0.27221543 -0.21031258 -0.29914057 -0.30990407 -0.35023496
-0.27570924 -0.31867492 -0.29882872 -0.3554024 -0.26090753 -0.26905313 -0.4326279 -0.38727382
00000000: db23 aabe d8b2 acbe 160d 14bf 4c57 a5be
00000010: 2755 d2be 8fd2 4bbe 7319 f7be b4a3 86be
00000020: e738 c5be 17d6 bfbe efaa a1be cfeb 9cbe
00000030: f37b c8bd dd4e b4be 150d e3be 4e60 f6be
00000040: 72b9 e6be ae05 ccbe e30c d4bd d25f 8bbe
00000050: 2e5c 57be f428 99be bfab 9ebe ff51 b3be
00000060: c329 8dbe 5c29 a3be 1400 99be 4ef7 b5be
00000070: ac95 85be 55c1 89be 6781 ddbe c148 c6be

bottle_neck.0.conv_block.2.running_mean f4 [32]
-0.16856438 -1.1294414 -4.0684886 -1.358058 -2.9701943 0.30156517 -1.2097435 -1.4700735
1.5297097 -2.6510503 -1.4823378 1.0926186 -1.8247311 -1.2598418 -1.7793958 -1.3792201
-1.1713148 -7.6597815 -1.9078054 -0.6328511 -0.5488759 0.010874527 -4.428773 1.2137921
-0.8859984 -2.4789891 1.3153048 -3.431279 -1.7840705 -2.3265705 -1.3071537 -1.0401397
00000000: 249c 2cbe 8991 90bf 0f31 82c0 d8d4 adbf
00000010: aa17 3ec0 c066 9a3e e0d8 9abf 5e2b bcbf
00000020: 87cd c33f cfaa 29c0 3fbd bdbf edda 8b3f
00000030: ca90 e9bf 7f42 a1bf 3ec3 e3bf 498a b0bf
00000040: a5ed 95bf ee1c f5c0 f832 f4bf 8802 22bf
00000050: 2283 0cbf 122b 323c 82b8 8dc0 8a5d 9b3f
00000060: cbd0 62bf c2a7 1ec0 e85b a83f 139a 5bc0
00000070: 6c5c e4bf 88e6 14c0 d050 a7bf 4c23 85bf

bottle_neck.0.conv_block.2.running_var f4 [32]
14.058983 9.475313 14.4139595 11.846179 11.136873 15.562974 11.848371 13.408344
11.073792 13.544056 12.791446 13.173085 11.942623 18.1478 17.444876 13.161069
11.84548 15.060127 16.809824 13.228601 13.673696 11.659936 9.603883 12.480391
19.545935 16.471148 12.240711 15.7333555 26.389734 14.174664 10.168018 9.374813
00000000: 98f1 6041 e29a 1741 949f 6641 f389 3d41
00000010: a230 3241 f101 7941 ed92 3d41 9488 5641
00000020: 412e 3141 74b4 5841 c3a9 4c41 f5c4 5241
00000030: fc14 3f41 b22e 9141 1b8f 8b41 bd93 5241
00000040: 1687 3d41 48f6 7041 857a 8641 5aa8 5341
00000050: 75c7 5a41 198f 3a41 81a9 1941 aeaf 4741
00000060: 135e 9c41 e9c4 8341 f4d9 4341 d3bb 7b41
00000070: 2d1e d341 6ccb 6241 34b0 2241 3cff 1541

bottle_neck.0.conv_block.5.weight f4 [32, 32, 3, 3]
0.04239714 -0.12679079 -0.071246654 -0.16582666 -0.19002749 0.1613862 0.098228656 -0.12085969
0.235796 0.120317034 -0.14603935 -0.23236106 0.15414335 0.0069595315 -0.045745805 0.004200508
-0.036330033 -0.086917296 -0.12466901 -0.088179514 -0.28386 -0.43678334 -0.37287906 -0.21955678
-0.095706075 0.04764737 -0.24634778 0.040530663 0.063322894 -0.2937599 0.16663042 0.13399792
-0.07476854 0.2117287 -0.026769344 -0.22019374 -0.24695617 -0.19529006 0.022771722 -0.06045365
-0.13163199 0.29224873 -0.08801459 -0.29402018 0.08399931 -0.29100576 -0.17991012 -0.21570785
-0.082298845 -0.21162248 -0.033397168 -0.017944079 -0.02700275 -0.025346939 0.097432286 0.049436387
0.1269497 -0.1654365 -0.33661747 -0.1991195 -0.22481477 -0.1606273 -0.18641458 0.08238477
0.054661587 -0.016499734 0.067688435 0.40167922 0.038360734 -0.027406543 0.020062216 -0.25912714
0.20325834 -0.014306288 -0.20172326 0.18644807 0.06324748 -0.16536824 -0.045206223 -0.031254858
-0.0140804695 0.26001835 -0.18398629 -0.11441233 0.39720085 0.27248535 0.0069613 0.110922374
0.083943054 -0.103457466 0.043229822 -0.010871442 -0.0085207885 -0.08641637 0.3088299 0.025387276
0.17129225 0.0019419964 -0.18687017 0.4142608 0.006557013 -0.23867683 -0.093519896 -0.032406434
-0.034623682 0.0033265103 -0.15028216 -0.35377848 0.048096016 0.23058997 0.114345334 -0.031421803
0.10316379 -0.0497341 0.30380914 0.009544748 0.16924334 -0.06921621 0.19920479 -0.1793643
0.22285028 0.28790915 0.070593394 -0.022236409 0.08772004 -0.3579635 -0.15663981 -0.04024447
-0.18318106 0.06957907 0.30033135 -0.20603853 -0.2209246 -0.23084944 -0.18063891 -0.018479379
0.042550158 0.064222604 0.13276768 0.038341872 0.06361423 0.07559892 0.120687485 0.2165164
0.37268743 0.24784726 0.11330414 0.05381134 -0.11197004 -0.2800434 0.05730002 0.07692203
0.09885357 -0.10567076 -0.1336693 -0.103173204 0.25343135 0.13350524 0.2643744 0.08375613
0.20320505 -0.11341955 -0.009041035 0.049924307 -0.045944944 -0.12303125 0.21736465 0.18047634
-0.08867213 -0.09127916 0.0057130405 0.34424427 0.1492205 0.2966717 -0.10669172 -0.36746988
0.039383803 0.13391991 -0.07746469 0.12466248 0.124433085 -0.06263374 0.03862689 -0.09993505
-0.34713715 -0.12491493 0.028619187 0.27022034 -0.10424759 -0.06521668 0.18161012 0.033311557
0.1636794 -0.023979977 0.08460511 0.13822076 0.052136816 -0.088290244 -0.27556592 -0.015727181
0.2219643 -0.16511065 -0.17634991 0.20270765 -0.25049055 -0.45308822 0.012590945 0.018990533
-0.03290894 0.3885988 -0.10320931 -0.15834959 0.06645608 -0.03588928 -0.015763128 0.2726168
-0.1952401 -0.0954848 -0.0099183945 -0.1264992 -0.16918391 0.038499676 -0.15715256 -0.14832458
-0.38450062 0.09525932 -0.016472662 0.24410167 0.26684618 -0.10803468 0.26145706 0.19659458
0.0030201206 0.18887171 0.10415737 -0.084845 0.20476402 0.02297983 -0.1547998 0.13677289
0.07836331 0.007824422 0.20024838 0.22027753 -0.026021447 0.19042753 -0.10604416 -0.05523994
-0.18111354 -0.048051234 -0.22137183 -0.18897893 0.09942892 0.015536559 -0.007799441 0.1527843
00000000: a0a8 2d3d 72d5 01be c4e9 91bd 77ce 29be
00000010: 9196 42be 6d42 253e 1b2c c93d 4985 f7bd
00000020: 8274 713e c768 f63d 578b 15be 0ff0 6dbe
00000030: c1d7 1d3e c80c e43b f45f 3bbd 6aa4 893b
00000040: cdce 14bd b201 b2bd 7752 ffbd 7697 b4bd
00000050: 1956 91be 11a2 dfbe 01ea bebe 7ed3 60be
00000060: 8c01 c4bd e329 433d 9842 7cbe 7b03 263d
00000070: 6faf 813d b367 96be 2aa1 2a3e c036 093e
00000080: 4020 99bd 69cf 583e 624b dbbc 787a 61be
00000090: 14e2 7cbe 1efa 47be c38b ba3c 3f9e 77bd
000000a0: 89ca 06be a0a1 953e fe40 b4bd d089 96be
000000b0: d507 ac3d b5fe 94be 5c3a 38be 85e2 5cbe
000000c0: 4c8c a8bd 90b3 58be 78cb 08bd 76ff 92bc
000000d0: df34 ddbc 62a4 cfbc 948a c73d cf7d 4a3d
000000e0: 1aff 013e 3068 29be 2059 acbe fbe5 4bbe
000000f0: d835 66be 7c7b 24be 77e3 3ebe 59b9 a83d
00000100: d4e4 5f3d 732a 87bc 3ca0 8a3d e6a8 cd3e
00000110: 2520 1d3d b083 e0bc 8459 a43c 50ac 84be
00000120: f422 503e ec64 6abc 8b90 4ebe 3eec 3e3e
00000130: e587 813d 4b56 29be 292a 39bd 1805 00bd
00000140: c5b1 66bc 2021 853e e766 3cbe 0351 eabd
00000150: e95d cb3e 3383 8b3e 9e1b e43b 452b e33d
00000160: 56ea ab3d 82e1 d3bd c111 313d 221e 32bc
00000170: c79a 0bbc 11fb b0bd f41e 9e3e faf8 cf3c
00000180: 3c67 2f3e 968a fe3a e55a 3fbe fe19 d43e
00000190: 36dc d63b b367 74be 5c87 bfbd 9cbc 04bd
000001a0: 90d1 0dbd 9501 5a3b 91e3 19be 7422 b5be
000001b0: 5400 453d c71f 6c3e e32d ea3d 26b4 00bd
000001c0: 8a47 d33d fcb5 4bbd df8c 9b3e 9361 1c3c
000001d0: 204e 2d3e 3ac1 8dbd 57fc 4b3e 46ab 37be
000001e0: dd32 643e d468 933e 4593 903d 2129 b6bc
000001f0: 90a6 b33d fe46 b7be 3066 20be 63d7 24bd
00000200: d193 3bbe 797f 8e3d 08c5 993e c4fb 52be
00000210: 0f3a 62be cc63 6cbe 68f9 38be 1162 97bc
00000220: 1349 2e3d 2487 833d 40f4 073e 5e0c 1d3d
00000230: 2d48 823d 9bd3 9a3d 002b f73d 7ab6 5d3e
00000240: e3d0 be3e accb 7d3e 000c e83d 4869 5c3d
00000250: 8c50 e5bd d961 8fbe 6db3 6a3d 4c89 9d3d
00000260: be73 ca3d e969 d8bd 9be0 08be 794c d3bd
00000270: c1c1 813e 99b5 083e 155c 873e 5588 ab3d
00000280: fc14 503e 8248 e8bd d920 14bc 6e7d 4c3d
00000290: c430 3cbd cff7 fbbd d794 5e3e cace 383e
000002a0: bc99 b5bd 91f0 babd 7534 bb3b c940 b03e
000002b0: 42cd 183e 5ae5 973e 3081 dabd 0325 bcbe
000002c0: e950 213d 4d22 093e cfa5 9ebd 0b4f ff3d
000002d0: c6d6 fe3d 1e46 80bd 3b37 1e3d bfaa ccbd
000002e0: f6bb b1be 66d3 ffbd c972 ea3c 525a 8a3e
000002f0: c37f d5bd 5390 85bd 01f8 393e b371 083d
00000300: 939b 273e a871 c4bc 7245 ad3d be89 0d3e
00000310: 6a8d 553d 84d1 b4bd fa16 8dbe 4ad6 80bc
00000320: 9c4a 633e c412 29be 1295 34be 9892 4f3e
00000330: 4c40 80be 2efb e7be 404a 4e3c 0992 9b3c
00000340: 86cb 06bd 6cf6 c63e 675f d3bd 6526 22be
00000350: 201a 883d a300 13bd ad21 81bc 6e94 8b3e
00000360: 05ed 47be 898d c3bd c380 22bc 0289 01be
00000370: 8c3e 2dbe d6b1 1d3d 9aec 20be 66e2 17be
00000380: 44dd c4be 5217 c33d adf1 86bc caf5 793e
00000390: 10a0 883e 4941 ddbd b3dd 853e 1750 493e
000003a0: 37ed 453b 9667 413e 7650 d53d 37c3 adbd
000003b0: a9ad 513e 3240 bc3c d783 1ebe 310e 0c3e
000003c0: f17c a03d 0132 003c e90d 4d3e 6f90 613e
000003d0: ee2a d5bc 6fff 423e ae2d d9bd 4643 62bd
000003e0: d475 39be 5fd1 44bd 4caf 62be b183 41be
000003f0: 64a1 cb3d 0d8d 7e3c 7492 ffbb 7d73 1c3e

bottle_neck.0.conv_block.6.weight f4 [32]
0.89487356 0.8736677 1.0367728 1.1582038 0.6278329 0.9592935 0.93276143 1.0405891
0.9673771 1.0285432 0.749313 1.2682447 0.8382586 1.0657842 1.0048202 1.019578
0.87601674 0.9380977 0.96928084 0.952597 0.99338996 0.86512256 0.8220439 0.978247
0.8791293 1.0460141 0.7132688 0.70521843 0.8064783 0.8574206 0.6806987 1.0297897
00000000: 6f16 653f b0a8 5f3f f9b4 843f 0640 943f
00000010: a8b9 203f 4294 753f 74c9 6e3f 0632 853f
00000020: 07a6 773f 4ea7 833f fad2 3f3f d855 a23f
00000030: 1e98 563f 9e6b 883f f39d 803f 8881 823f
00000040: a242 603f 2c27 703f ca22 783f 66dd 733f
00000050: ce4e 7e3f ac78 5d3f 7871 523f 656e 7a3f
00000060: 9e0e 613f cae3 853f c998 363f 3289 343f
00000070: 5d75 4e3f eb7f 5b3f 4542 2e3f 26d0 833f

bottle_neck.0.conv_block.6.bias f4 [32]
0.08594847 -0.020459624 -0.1275429 -0.0012091777 0.090865515 0.1033095 -0.033641573 -0.09022931
0.09134917 0.018282834 -0.07534974 0.14422041 0.1325243 -0.10845411 -0.027717689 0.03300985
0.057390407 -0.073752955 -0.06300766 0.020114036 0.016900279 -0.044468388 -0.12781219 0.12807238
-0.01593111 0.01563903 -0.018875405 0.033573184 0.08739645 0.015137423 -0.0060727517 -0.07200427
00000000: c005 b03d f19a a7bc 9b9a 02be 457d 9eba
00000010: b317 ba3d ee93 d33d bfcb 09bd 25ca b8bd
00000020: 4615 bb3d e2c5 953c f750 9abd 84ae 133e
00000030: 73b4 073e 301d debd 3510 e3bc 5635 073d
00000040: 3412 6b3d ca0b 97bd 290a 81bd 31c6 a43c
00000050: 7472 8a3c 7c24 36bd 33e1 02be 6825 033e
00000060: f681 82bc 6c1d 803c 98a0 9abc 0984 093d
00000070: e9fc b23d f402 783c effd c6bb fa76 93bd

bottle_neck.0.conv_block.6.running_mean f4 [32]
0.016142283 0.5535208 -0.36733982 -0.34860936 0.85600275 0.11607564 -1.0126908 -0.3983731
-0.4444267 0.63643396 0.5647177 -0.907057 -0.12186344 0.56173897 -2.076492 -0.7343093
-0.7289853 -1.2268414 -0.23435798 1.1101798 1.0923276 -0.3923243 1.6454682 1.1422673
0.58878773 0.43346906 -0.0016420521 1.9628456 0.59114265 1.0195088 0.38391015 -0.047038306
00000000: d23c 843c 8ab3 0d3f f713 bcbe ed7c b2be
00000010: ff22 5b3f 11b9 ed3d da9f 81bf 8ff7 cbbe
00000020: e58b e3be 56ed 223f 5791 103f e334 68bf
00000030: 8a93 f9bd 20ce 0f3f 3fe5 04c0 b2fb 3bbf
00000040: c89e 3abf 2409 9dbf 8afb 6fbe 5f1a 8e3f
00000050: 64d1 8b3f bbde c8be b49e d23f d135 923f
00000060: cbba 163f a8ef dd3e 203a d7ba 863e fb3f
00000070: 2055 173f 447f 823f df8f c43e 3dab 40bd

bottle_neck.0.conv_block.6.running_var f4 [32]
5.5176897 5.4112577 7.04253 4.976242 5.041732 7.6818542 5.621715 5.5983677
3.3976424 4.943216 8.142045 3.2901013 5.9993634 4.3043227 3.4723155 4.5795093
8.061765 9.354709 3.9543014 5.096057 5.449785 6.597595 5.122254 3.6424704
7.518917 4.2190747 6.9307933 5.9319487 3.853798 5.7603164 6.6171823 4.216509
00000000: ea90 b040 0629 ad40 685c e140 603d 9f40
00000010: de55 a140 c0d1 f540 17e5 b340 d425 b340
00000020: f972 5940 d32e 9e40 d145 0241 0591 5240
00000030: c9fa bf40 03bd 8940 6b3a 5e40 578b 9240
00000040: fdfc 0041 e3ac 1541 4613 7d40 e612 a340
00000050: a464 ae40 801f d340 81e9 a340 3c1e 6940
00000060: f89a f040 a902 8740 0fc9 dd40 86d2 bd40
00000070: a0a4 7640 8354 b840 f5bf d340 a4ed 8640

bottle_neck.1.conv_block.1.weight f4 [32, 32, 3, 3]
-0.18921326 0.14327891 0.115045644 -0.022248752 0.022617547 0.027641367 0.08037206 -0.0007385098
0.1263823 -0.08026452 -0.19530119 0.19084483 -0.12882333 0.061988886 -0.34198448 0.14517705
0.09868766 0.13448277 0.14212751 -0.08736413 0.08438546 0.20626895 0.10419788 0.13031988
0.08281071 -0.19443454 -0.19776215 -0.40102938 -0.1989391 -0.017002026 -0.07207313 -0.13176079
0.03605291 0.17294958 0.058589503 0.2234026 -0.15981366 0.020811884 0.048052263 -0.09312168
-0.123849235 -0.024742115 0.114296876 0.122649506 0.20387861 0.014653013 0.205296 0.18199725
0.17915682 0.22031242 -0.13972472 0.08129884 0.04530544 -0.08188874 -0.052580535 -0.22540654
-0.07126105 0.11987933 0.2909012 0.25788432 0.21954347 0.017810667 0.058054972 -0.30115384
0.12542573 -0.17042959 -0.0416972 -0.13161218 0.14573309 -0.037334204 0.099076055 0.23009564
-0.2353132 -0.031859547 0.03126869 0.060843475 0.10394034 0.3264746 0.17739753 0.19667411
0.38001966 -0.005187162 0.31156898 0.30215076 -0.1407682 -0.06187101 -0.075527996 -0.13203493
-0.11623362 0.0075156908 -0.11709307 -0.05879273 -0.011868718 0.059329472 -0.1083733 -0.1061805
-0.062061343 -0.1005638 -0.020093665 -0.20353507 -0.1868231 0.041107588 -0.05448064 0.11339567
0.1656039 0.27774882 0.057901863 0.14722157 -0.18896563 0.009542756 -0.02118358 -0.042498626
-0.08636138 0.07097075 0.10606932 0.075531796 0.3122869 0.022920476 -0.12835918 -0.34418273
0.08310598 -0.01668822 0.0072893673 -0.20437637 -0.07115857 -0.29373315 0.15280002 -0.07973435
0.096281655 0.15112971 0.068091415 0.20424198 -0.38118026 0.12959115 -0.1986786 -0.061318547
0.12494263 -0.051494963 -0.16922964 -0.06271772 -0.21018815 -0.0927418 -0.06530733 -0.017107448
-0.22709487 -0.2644325 -0.17888246 -0.08037423 -0.1581764 0.03941699 -0.0013927949 0.12032516
0.10455879 -0.3626552 -0.1797018 -0.10375885 0.0008122203 -0.29497764 0.043102935 -0.009871749
0.049748287 0.09295768 0.10900597 0.15101285 -0.23104954 0.15285651 0.032135647 0.05781821
-0.06539249 -0.06444187 -0.034319833 -0.1029431 -0.21354674 -0.2331798 -0.07766136 0.16442214
0.0852963 0.10263166 0.09877085 -0.14193024 0.18207155 0.051854517 0.09848011 0.11813594
-0.47797504 -0.3768707 -0.49848005 -0.39355487 -0.29690015 -0.34002814 -0.49409035 -0.17130668
0.04806527 -0.31555828 0.14988199 -0.045086477 0.020423673 -0.00030968947 -0.29791462 0.0027521977
-0.12634395 -0.047751147 -0.13394819 -0.18967547 0.106289856 -0.16963191 -0.035519402 0.076541156
-0.088945076 0.22013797 0.13977122 0.21549922 0.08263917 0.012553521 -0.23282127 -0.10431324
0.31938544 0.072721906 0.089652866 -0.01531882 0.074180156 -0.14239644 -0.09747685 -0.02677482
-0.27621576 0.07835188 -0.2282417 -0.06871345 0.19648527 0.06823313 0.26368707 0.3021818
0.11832224 0.0062383087 0.32495424 -0.08201363 -0.115887046 0.16300157 0.077172406 0.15793101
-0.21725155 -0.0008901904 -0.38028952 0.33587465 0.22928835 0.28733224 0.12740076 -0.019170625
-0.15849769 -0.17695186 -0.08106598 -0.08840605 0.023781024 0.29035962 0.10035973 -0.34636915
00000000: 1fc1 41be b5b7 123e 0d9d eb3d 0443 b6bc
00000010: 6f48 b93c 2670 e23c 1b9a a43d 8e98 41ba
00000020: 5d6a 013e ba61 a4bd 09fd 47be d46c 433e
00000030: 43ea 03be 0fe8 7d3d 9718 afbe 4ba9 143e
00000040: c21c ca3d dab5 093e e089 113e f7eb b2bd
00000050: 49d2 ac3d 2b38 533e b365 d53d 9372 053e
00000060: a998 a93d d919 47be 2982 4abe b953 cdbe
00000070: b1b6 4bbe d547 8bbc 149b 93bd 4dec 06be
00000080: 37ac 133d b219 313e 8cfb 6f3d a7c3 643e
00000090: 31a6 23be af7d aa3c 73d2 443d 94b6 bebd
000000a0: aba4 fdbd faaf cabc 7b14 ea3d aa2f fb3d
000000b0: 8ec5 503e 3113 703c 1d39 523e 7d5d 3a3e
000000c0: e374 373e 9499 613e ff13 0fbe 0280 a63d
000000d0: 3292 393d 49b5 a7bd b05e 57bd f9d0 66be
000000e0: 50f1 91bd 4b83 f53d 01f1 943e 6a09 843e
000000f0: 01d0 603e ade7 913c 0dcb 6d3d d630 9abe
00000100: 9a6f 003e 1885 2ebe afca 2abd 58c5 06be
00000110: 0e3b 153e c0eb 18bd 63e8 ca3d 319e 6b3e
00000120: f2f5 70be 287f 02bd 9913 003d 0237 793d
00000130: acde d43d ae27 a73e b3a7 353e f064 493e
00000140: f091 c23e 12f9 a9bb f885 9f3e 81b3 9a3e
00000150: 8a25 10be 756c 7dbd 6cae 9abd 2a34 07be
00000160: e40b eebd 2f46 f63b 7ece efbd a5d0 70bd
00000170: 0375 42bc 7603 733d d2f2 ddbd 2975 d9bd
00000180: 0934 7ebd 65f4 cdbd 789b a4bc 7f6b 50be
00000190: 8e4e 3fbe 6e60 283d 1727 5fbd fd3b e83d
000001a0: 1294 293e 1835 8e3e 812a 6d3d 40c1 163e
000001b0: 3580 41be 3859 1c3c 3089 adbc 0a13 2ebd
000001c0: 3cde b0bd 1d59 913d df3a d93d 6ab0 9a3d
000001d0: 12e4 9f3e b9c3 bb3c 9770 03be b838 b0be
000001e0: 7833 aa3d bcb5 88bc a5db ee3b 0a48 51be
000001f0: 96bb 91bd 3164 96be 9c77 1c3e c34b a3bd
00000200: 512f c53d bfc1 1a3e 8373 8b3d cf24 513e
00000210: 0f2a c3be 8bb3 043e 6772 4bbe 2829 7bbd
00000220: ece1 ff3d 62ec 52bd 894a 2dbe 2672 80bd
00000230: 903b 57be 6aef bdbd d9bf 85bd eb24 8cbc
00000240: 8f8b 68be b263 87be f72c 37be 3f9b a4bd
00000250: fff8 21be b673 213d 718e b6ba 0a6d f63d
00000260: eb22 d63d f1ad b9be c003 38be 857f d4bd
00000270: 2feb 543a 4f07 97be b48c 303d 1ebd 21bc
00000280: dcc4 4b3d 9960 be3d 863e df3d 1da3 1a3e
00000290: 4098 6cbe 6b86 1c3e aba0 033d cad2 6c3d
000002a0: 7fec 85bd 19fa 83bd f492 0cbd d5d3 d2bd
000002b0: ffab 5abe afc6 6ebe eb0c 9fbd 475e 283e
000002c0: d4af ae3d 8c30 d23d 5f48 ca3d 2956 11be
000002d0: f770 3a3e 6765 543d f1af c93d 41f1 f13d
000002e0: 25b9 f4be 32f5 c0be c738 ffbe 0680 c9be
000002f0: 4c03 98be 2b18 aebe 69f9 fcbe 056b 2fbe
00000300: 17e0 443d db90 a1be aa7a 193e 99ac 38bd
00000310: 8c4f a73c d15d a2b9 4488 98be 375e 343b
00000320: 4f60 01be b596 43bd b729 09be 493a 42be
00000330: 7fae d93d fdb3 2dbe cb7c 11bd 9cc1 9c3d
00000340: d628 b6bd d96b 613e 3020 0f3e d4ab 5c3e
00000350: ba3e a93d 49ad 4d3c b368 6ebe 2ea2 d5bd
00000360: 7d86 a33e 39ef 943d ec9b b73d cafb 7abc
00000370: c4eb 973d 5fd0 11be f1a1 c7bd de56 dbbc
00000380: 276c 8dbe f376 a03d 31b8 69be a3b9 8cbd
00000390: 6f33 493e d0bd 8b3d fe01 873e 93b7 9a3e
000003a0: ee52 f23d ba6a cc3b 6760 a63e c3f6 a7bd
000003b0: 3056 edbd e2e9 263e 910c 9e3d abb8 213e
000003c0: 3177 5ebe ab5b 69ba 4fb5 c2be c3f7 ab3e
000003d0: 91ca 6a3e 361d 933e 5875 023e b70b 9dbc
000003e0: 384d 22be de32 35be ec05 a6bd 3b0e b5bd
000003f0: 6cd0 c23c 04aa 943e 6789 cd3d 4c57 b1be

bottle_neck.1.conv_block.2.weight f4 [32]
1.0949593 1.1909009 0.8476238 0.9807447 1.1755071 0.9034841 0.8906547 0.8144601
0.729922 1.1370382 0.8887384 1.1218138 1.2251953 1.1806704 1.1620635 1.2061232
1.0331033 0.71426827 0.8132117 0.9459778 0.7949908 1.0233047 1.0705556 0.9491487
0.9041278 0.9498098 0.82295763 0.7462243 0.8043907 0.9557241 0.7299992 0.9193122
00000000: a027 8c3f 716f 983f e0fd 583f 1612 7b3f
00000010: 0477 963f bc4a 673f f201 643f 7580 503f
00000020: 2bdc 3a3f 788a 913f 5c84 633f 9897 8f3f
00000030: 33d3 9c3f 3520 973f 7fbe 943f 3f62 9a3f
00000040: bb3c 843f 49da 363f a42e 503f 9a2b 723f
00000050: 8484 4b3f a6fb 823f f707 893f 69fb 723f
00000060: eb74 673f bc26 733f 5aad 523f 8e08 3f3f
00000070: 8dec 4d3f 56aa 743f 3ae1 3a3f 0b58 6b3f

bottle_neck.1.conv_block.2.bias f4 [32]
-0.28515717 -0.46925354 -0.30282965 -0.5403228 -0.32446584 -0.47787917 -0.35706732 -0.41683054
-0.3879081 -0.37137154 -0.40821192 -0.4942316 -0.05061812 -0.19006509 -0.48820034 -0.3865516
-0.24150656 -0.32244474 -0.24147242 -0.19688576 -0.39877272 -0.44420218 -0.29470304 -0.05999839
-0.32102707 -0.381836 -0.3478853 -0.14181992 -0.34191176 -0.32549992 -0.46403474 -0.31487814
00000000: 1f00 92be 0042 f0be 7d0c 9bbe 9852 0abf
00000010: 6320 a6be 94ac f4be 87d1 b6be d06a d5be
00000020: e49b c6be 6924 bebe 2701 d1be ed0b fdbe
00000030: f254 4fbd 6ca0 42be 65f5 f9be 17ea c5be
00000040: 7f4d 77be 7a17 a5be 8c44 77be 6c9c 49be
00000050: f02b ccbe 786e e3be 51e3 96be dfc0 75bd
00000060: a95d a4be 0280 c3be 061e b2be 3e39 11be
00000070: 0f0f afbe eda7 a6be f695 edbe b537 a1be

bottle_neck.1.conv_block.2.running_mean f4 [32]
-2.1070547 0.41981965 1.7971368 0.40191135 0.25303164 2.8563178 -0.9846823 -1.0111789
-1.2812464 -3.12715 1.2582698 0.61776966 0.007365519 1.4256418 4.4794316 -1.4878364
-1.4241078 3.560279 0.3151349 -0.6677504 -1.4354751 0.102887854 -3.1725254 2.6024997
0.5770266 -3.8590508 1.3900938 2.7993026 -0.9443049 0.22199535 -2.8551188 2.8611803
00000000: fcd9 06c0 9af2 d63e 9408 e63f 53c7 cd3e
00000010: 5d8d 813e e9cd 3640 2414 7cbf 4f6e 81bf
00000020: e2ff a3bf 3a23 48c0 fc0e a13f 2726 1e3f
00000030: 745a f13b 6e7b b63f 8157 8f40 6c71 bebf
00000040: 2a49 b6bf 9cdb 6340 5d59 a13e b1f1 2abf
00000050: a6bd b7bf deb6 d23d a80a 4bc0 5b8f 2640
00000060: 04b8 133f b0fa 76c0 98ee b13f c627 3340
00000070: f7bd 71bf c052 633e 44ba 36c0 941d 3740

bottle_neck.1.conv_block.2.running_var f4 [32]
63.40049 49.55082 66.66158 44.317657 70.80897 75.028656 128.95818 86.06962
105.67404 56.831985 51.793846 54.152153 57.90499 52.438908 49.31949 54.38252
57.87191 88.24244 99.98911 152.09637 60.927902 56.90563 53.529633 71.06608
159.10835 45.267048 84.21267 142.74016 96.55733 64.99706 80.6129 67.42259
00000000: 1a9a 7d42 0a34 4642 bb52 8542 4845 3142
00000010: 319e 8d42 ac0e 9642 4bf5 0043 a523 ac42
00000020: 1c59 d342 f453 6342 e62c 4f42 ce9b 5842
00000030: b69e 6742 71c1 5142 2847 4542 b387 5942
00000040: d67c 6742 217c b042 6dfa c742 ac18 1843
00000050: 2cb6 7342 5d9f 6342 581e 5642 d521 8e42
00000060: bd1b 1f43 7511 3542 e36c a842 7bbd 0e43
00000070: 5a1d c142 7ffe 8142 ce39 a142 5ed8 8642

bottle_neck.1.conv_block.5.weight f4 [32, 32, 3, 3]
-0.23295087 -0.21388546 0.14827135 0.3431497 0.3890115 0.0016279514 -0.104797974 0.30070296
0.037506692 -0.09957548 -0.059942573 0.10612454 0.12386014 0.06974263 0.035914402 0.23847876
0.16775244 0.16606763 -0.07391698 -0.21735601 0.11467187 -0.07213559 -0.047399886 0.08893662
-0.008098952 0.10147935 0.10243079 0.13599752 -0.17513292 0.39370447 -0.12349496 0.41325745
0.05572287 0.012162789 0.07628455 -0.026127908 -0.15935512 -0.08060852 -0.10103145 0.34537157
0.18665616 0.12188446 -0.13392672 0.06581942 -0.2763929 0.059351042 0.110977575 -0.064440824
0.032638244 0.35579053 0.1852367 -0.110517986 0.14194517 0.04254804 -0.06718571 -0.16255237
-0.27379662 -0.12421029 -0.24384226 -0.15781383 -0.11889587 -0.14614233 -0.14533369 -0.059440307
-0.20212647 0.010417756 -0.38631955 0.040195018 -0.23940788 -0.22157769 -0.25900686 -0.08151815
-0.055148043 -0.19047324 -0.10760874 -0.09228902 -0.18321739 -0.045779347 -0.14911442 -0.23722431
-0.12668148 0.31797123 -0.030631887 0.02627098 0.04161922 -0.008426735 -0.13269243 0.02894666
0.017843975 0.06908387 -0.0069749253 -0.101688206 -0.06532547 0.13941033 0.071039446 0.04550161
0.20235617 0.03867752 0.03162313 -0.07932672 -0.18563776 -0.095790796 -0.12203584 0.15100826
-0.19376136 0.16008328 0.14301068 0.2711955 0.08908449 0.11865578 -0.057629094 0.16042005
-0.0010092917 -0.07597846 -0.016910557 0.0355499 -0.17569171 0.02462928 -0.026331462 -0.288163
0.2611828 0.20405242 -0.11634192 0.13363361 -0.035731286 -0.18353748 -0.14928678 -0.009509307
0.24477546 -0.11477696 -0.09144516 0.20955855 0.016197305 -0.069480486 0.22340657 -0.20794627
0.09716498 -0.008230889 0.10921208 0.19681293 0.0855225 0.00944229 0.30531284 0.05564776
-0.02355281 0.36955953 0.04437447 -0.26691285 0.16255304 -0.07689058 -0.085805826 -0.12133036
0.10758335 0.07957071 -0.057898603 0.031533144 0.16380075 -0.008192158 0.17259696 -0.06980655
0.0584996 0.10711814 -0.07969469 -0.11885489 -0.17945038 -0.27231687 -0.19502915 0.093574405
-0.113751635 -0.3089834 -0.30858544 -0.29151425 -0.12810418 -0.20017979 -0.3957581 -0.03961993
-0.068484485 -0.2681855 -0.21892688 -0.107182704 0.042834487 0.23463686 -0.030442031 -0.08351909
-0.10777717 -0.15022126 0.29708126 0.29176164 0.20397674 -0.4712905 -0.47402653 -0.20839202
-0.08389037 0.057510566 0.10590941 -0.22993802 -0.21742873 0.061827812 0.18435085 0.15099569
-0.14534375 0.34084687 0.24835834 -0.05521744 0.25631824 0.25421602 -0.31743872 0.016508747
-0.039262515 -0.12536739 -0.034707107 0.05682358 -0.036298886 -0.16509923 -0.020006604 0.09937849
-0.2281825 -0.048320845 -0.3054277 -0.19008045 -0.1636934 -0.16018854 -0.33603457 -0.23758797
-0.028951716 -0.20774336 0.11373312 -0.055412892 -0.18488957 -0.059898116 -0.2306671 -0.18024625
0.042264696 0.088891044 0.20205231 0.12661473 0.08112646 -0.017038457 -0.10431682 -0.07710169
0.24275246 0.02372804 -0.1261065 -0.119102366 0.011020377 -0.13385338 -0.14272597 0.13631676
0.0062350775 -0.2257091 -0.017642217 0.043041173 -0.100307755 0.07714246 0.06022929 -0.304994
00000000: ac8a 6ebe ca04 5bbe 72d4 173e 51b1 af3e
00000010: 842c c73e fc60 d53a 52a0 d6bd bdf5 993e
00000020: 9ea0 193d 3bee cbbd 5886 75bd d357 d93d
00000030: 63aa fd3d 39d5 8e3d fb1a 133d c733 743e
00000040: 4cc7 2b3e a20d 2a3e c961 97bd 9392 5ebe
00000050: 16d9 ea3d d3bb 93bd 6226 42bd 6724 b63d
00000060: 77b1 04bc 68d4 cf3d 3cc7 d13d ef42 0b3e
00000070: 0b56 33be a293 c93e edea fcbd 7b96 d33e
00000080: aa3d 643d 6f46 473c 133b 9c3d 320a d6bc
00000090: fd2d 23be 1416 a5bd 94e9 cebd 8bd4 b03e
000000a0: cb22 3f3e 8f9e f93d 1624 09be 55cc 863d
000000b0: 5f83 8dbe 141a 733d 3648 e33d 8df9 83bd
000000c0: aeaf 053d 2d2a b63e b1ae 3d3e 4157 e2bd
000000d0: 135a 113e db46 2e3d a998 89bd 2174 26be
000000e0: 122f 8cbe f761 febd c9b1 79be f399 21be
000000f0: ae7f f3bd 56a6 15be 5bd2 14be ae77 73bd
00000100: 3efa 4ebe 3caf 2a3c adcb c5be 88a3 243d
00000110: 5727 75be 43e5 62be 8c9c 84be fdf2 a6bd
00000120: eae2 61bd 6b0b 43be f961 dcbd 0702 bdbd
00000130: 579d 3bbe 2083 3bbd 73b1 18be eeea 72be
00000140: cab8 01be 20cd a23e b9ef fabc 3d36 d73c
00000150: ea78 2a3d 4a10 0abc 86e0 07be 8c21 ed3c
00000160: 872d 923c d87b 8d3d ea8d e4bb e841 d0bd
00000170: 5cc9 85bd 95c1 0e3e 217d 913d e55f 3a3d
00000180: 7536 4f3e 526c 1e3d 4187 013d 0c76 a2bd
00000190: d317 3ebe f72d c4bd eded f9bd e9a1 1a3e
000001a0: 6169 46be dfec 233e 6471 123e 23da 8a3e
000001b0: ee71 b63d cd01 f33d 7c0c 6cbd 2745 243e
000001c0: 364a 84ba 989a 9bbd 0288 8abc c69c 113d
000001d0: 87e8 33be 58c3 c93c 14b5 d7bc 1a8a 93be
000001e0: c1b9 853e 1ef3 503e ac44 eebd 40d7 083e
000001f0: f85a 12bd 40f1 3bbe a2de 18be edcc 1bbc
00000200: 6ba6 7a3e 2f10 ebbd 9a47 bbbd 8496 563e
00000210: 36b0 843c c94b 8ebd b1c4 643e deef 54be
00000220: 6ffe c63d dada 06bc 95aa df3d 5489 493e
00000230: 6c26 af3d d6b3 1a3c f751 9c3e e8ee 633d
00000240: d3f1 c0bc e836 bd3e 01c2 353d cda8 88be
00000250: 4e74 263e cf78 9dbd f7ba afbd 0d7c f8bd
00000260: a954 dc3d f8f5 a23d 1627 6dbd e628 013d
00000270: 62bb 273e 6738 06bc 42bd 303e bdf6 8ebd
00000280: 479d 6f3d c160 db3d f836 a3bd 316a f3bd
00000290: d7c1 37be 1e6d 8bbe b9b5 47be f0a3 bf3d
000002a0: 9ef6 e8bd 1233 9ebe e9fe 9dbe 5b41 95be
000002b0: be2d 03be eefb 4cbe cea0 cabe 8248 22bd
000002c0: 9841 8cbd 9c4f 89be 5e2e 60be 9b82 dbbd
000002d0: 3773 2f3d a544 703e 9161 f9bc 0f0c abbd
000002e0: 47ba dcbd 9ad3 19be 091b 983e c861 953e
000002f0: 47df 503e fd4c f1be 9bb3 f2be b864 55be
00000300: b7ce abbd 3390 6b3d 08e7 d83d df74 6bbe
00000310: a3a5 5ebe 293f 7d3d 78c6 3c3e 9d9e 1a3e
00000320: fed4 14be 7b83 ae3e a651 7e3e af2b 62bd
00000330: 253c 833e 9a28 823e 5487 a2be 5a3d 873c
00000340: bbd1 20bd 4f60 00be 0a29 0ebd d8bf 683d
00000350: 24ae 14bd c60f 29be e4e4 a3bc f386 cb3d
00000360: aca8 69be 14ec 45bd 0561 9cbe 73a4 42be
00000370: 3e9f 27be 7708 24be b90c acbe 434a 73be
00000380: 262c edbc adba 54be e9ec e83d a1f8 62bd
00000390: b153 3dbe ba57 75bd ff33 6cbe 7992 38be
000003a0: bf1d 2d3d 820c b63d cde6 4e3e 4ba7 013e
000003b0: a125 a63d 3c94 8bbc 0fa4 d5bd 7ee7 9dbd
000003c0: 1a94 783e 4e61 c23c 1022 01be f1eb f3bd
000003d0: d08e 343c dc10 09be c226 12be 9f96 0b3e
000003e0: 9f4f cc3b 4920 67be 6986 90bc f14b 303d
000003f0: 276e cdbd defc 9d3d fdb2 763d 2c28 9cbe

bottle_neck.1.conv_block.6.weight f4 [32]
0.7790313 0.7389235 0.8405738 0.7236221 0.8157962 0.82539415 0.62351704 0.7362257
0.95244485 0.644696 0.46616304 0.9479542 0.6629848 0.81076366 0.8361619 1.0394443
0.6647753 0.62855035 0.8268723 0.9560733 0.72324 0.70571035 0.67262834 0.796912
0.8527284 0.79567015 0.7702074 0.9039317 0.7022313 0.6529217 0.43192503 0.8953612
00000000: 986e 473f 172a 3d3f d82f 573f 4c3f 393f
00000010: 05d8 503f 084d 533f d09e 1f3f 4a79 3c3f
00000020: 6dd3 733f cc0a 253f ecac ee3e 20ad 723f
00000030: 5fb9 293f 358e 4f3f b50e 563f 830c 853f
00000040: b72e 2a3f ade8 203f e7ad 533f 38c1 743f
00000050: 4226 393f 6fa9 343f 5f31 2c3f 6d02 4c3f
00000060: 694c 5a3f 0ab1 4b3f 502c 453f 1168 673f
00000070: 6ec5 333f e025 273f 4725 dd3e 6436 653f
